aePyTorch/trained_models/L64.52.44.32.24.16B128Lr2e-037.2e5/bestModel.pt (torch, 109687 bytes, 24 tensors)

encoder.0.weight f4 [64, 67]
00000000: 792b 54be 97a8 9a3a c697 bcbc 6501 593e
00000010: 92b3 3a3e 5dc8 353e c583 f73c cc9a 143d
00000020: 04d4 03be f42b bc3c d94b 053a f246 c03d
00000030: 4c04 233e 6f59 6f3d f0b3 7cbe bb9f 1cbb
00000040: aba2 833b af91 32bc 634d 29bd ab42 983d
00000050: c0d9 f63c cc18 8e3b 1c7f 01bc 59b2 80bb
00000060: 1c6e 96be 8bf9 5a3d d594 0abd a158 113f
00000070: b643 263e 5a37 3f3d b260 a7be 998f deba
00000080: b416 d33f 931b 0bbf eed1 7f3c 4feb 1c40
00000090: 42ec 3e3e 8f5b d0bb 158a 5ac0 f5ca 5bbd
000000a0: f459 bebe 4407 b73d 8dbc b63d bdd0 113d
000000b0: b018 5c3b 01b1 64bd 29da 04be c290 3fbd
000000c0: 6105 a73d 0629 ba3a 3253 13bd 5f57 b5be
000000d0: f2d1 353e 0859 c1bd ad2d cc3d a728 2dbd
000000e0: 0a18 f73b 47b3 e0bc 09ea 033d c15d 4a3d
000000f0: 6b76 58be 0ccf 0a3e 21c1 b53d f194 f73e
00000100: 3138 153e 177f e1be e1c5 3fbc 39a3 95bb
00000110: cabf c33d 0b55 aabc c77c ee3d c2de 133f
00000120: 4d87 343f 4388 fa3d cc57 34c0 b331 023e
00000130: 3ef5 743d 3111 543d b5cb 5ebe 1b77 d93e
00000140: a08e a93e 6902 683d 3a2f 19bd df9b 05bc
00000150: b6fa d13d bb6e 363d 9f4d 453e b84b 533e
00000160: 8a64 503e a377 7e3d 3b27 1cc0 5767 043e
00000170: be51 733c 98dc 9abb 6129 fcbc 9128 543e
00000180: 4f36 e83d 1b3a a23d c8c3 cbc0 75e7 903e
00000190: 353e 4b3d 8357 e6bb 2541 cdbd f954 3b3d
000001a0: f9eb b13d 009d e43e a8a7 1dbd aad4 1f3e
000001b0: 8bfc e33c bc00 9abc 98cf 1b3d ce2f 8f3c
000001c0: e869 8f3d 49a9 99bd 98e1 b4bd 2301 eb3d
000001d0: 4d12 e1bd bba9 013d 7a38 cabe 0127 51be
000001e0: c4de c63d 2309 4f3e 6b5a 16bd e8e4 c9be
000001f0: b469 173e 8c54 2b3d 342f 433f 022c 533d
00000200: 499f 7ebe da3a 80bd 3661 b2bc afce b13c
00000210: c0ac 6d3d c816 cb3c a8c8 8f3d f3e0 8ebe
00000220: a48a c9bb 1fa1 6cbe 2d02 753f cd7e 2b3f
00000230: 668b 6e3e f0d7 af3c ccd6 0dbd cbf1 70be
00000240: 12d8 86bc 48fa e03d a8eb 583f adb8 b83e
00000250: 854c 913d a494 773c df66 10be 8d42 72be
00000260: e497 3dbd ef01 d13c e255 d83e e912 953e
00000270: 9d08 1a3e 101f 9abd 4679 6cbe c95f acbe
00000280: ae6f 08bc fd65 0c3e a770 e63e 88a4 543f
00000290: f6c3 c1bc 50f3 f53c f94d b8be 34c6 59be
000002a0: e82b 873c e51c 3d3b cea9 b23e 4a5a 9a3e
000002b0: bcac 533e 6c54 233d 7dbf 403e f40c 203b
000002c0: 1386 233d 0000 01be 734a 933e 99a1 083d
000002d0: 87bc 0e3e 7855 b93c 3f5a 923f 62b3 fdbe
000002e0: 93cf 01c1 a4fa 3c3f b54b 8abe f524 e7bf
000002f0: c38d 923f ef37 c13d 4010 7d3d 7303 563e
00000300: 2fbf d53e cb2c 2f3f 8834 e3be 3f4e a73f
00000310: 6f43 f0bd 6b3d 0c3f 78a2 1a3e ce95 b9bb
00000320: 1d66 133f 6c38 19bd e71c af3c 84fe 03bd
00000330: cb51 383d 8e7c d83d c795 e53d 6218 2a3d
00000340: 10da b93b ba7b 2c3c 17de ccbd 061f 90bc
00000350: 99e5 a5bd 05e7 b83d 7364 243d b72b 11be
00000360: 95e8 b9bb ec88 e5bc 9da3 333d ad1c 21bd
00000370: ce97 a03d 04d1 543d 5a3f 343c 9618 b13d
00000380: aade 1b3c b384 e9bd 9f81 2cbf 8d00 c33c
00000390: 445f 6a3e 0ba8 543d b9ca 0abd ec30 78bf
000003a0: 32ae f9bb 5b88 0ebf 5201 b73f e2b4 28be
000003b0: b163 0440 58f4 823c 1de7 903c 914f ba3f
000003c0: 5bb5 f4bc e042 88bd 563c 00be 508f 27bd
000003d0: bd8e 87bd 8bc2 e23c b858 1ebd 6083 82be
000003e0: 77df 9cbc 3ab9 f43c 7a13 17bd 1edb 5d3b
000003f0: b2ab ecbd 1ad0 ccbc ee9c 3bbd b0bd aa3d
-0.20719709 0.0011799511 -0.02302159 0.21191938 0.18232563 0.17752214 0.0302142 0.03628044
-0.12873846 0.022970177 0.00050848495 0.09388532 0.15919608 0.0584349 -0.24678016 -0.0023898918
0.0040171943 -0.0108989915 -0.041333567 0.07434591 0.030133128 0.004336452 -0.00790384 -0.0039275107
-0.29380882 0.05346064 -0.033833344 0.5677586 0.16236767 0.046683647 -0.3269096 -0.0016980051
1.6491303 -0.5433895 0.015614016 2.451862 0.18644813 -0.006358571 -3.4146779 -0.05366035
-0.37178004 0.08936933 0.08922682 0.03559946 0.003358405 -0.055832867 -0.12973846 -0.04676891
0.08155323 0.00142029 -0.035968013 -0.3541822 0.17755869 -0.094408095 0.099696495 -0.042275097
0.0075407075 -0.027429236 0.032205615 0.049405817 -0.21138923 0.13555545 0.08874727 0.4835582
0.14572217 -0.44042274 -0.011704893 -0.004566577 0.09558065 -0.020792505 0.11644893 0.57761776
0.7051895 0.12233021 -2.8178587 0.12714271 0.059804194 0.051774208 -0.21757396 0.42473683
0.33116627 0.056642924 -0.037398554 -0.008154838 0.102528974 0.044539195 0.19267891 0.20634353
0.20350853 0.062125813 -2.4398944 0.12930046 0.014851032 -0.004726004 -0.03078145 0.207186
0.113384835 0.07921239 -6.367649 0.28301588 0.049619872 -0.007029475 -0.10022191 0.045735333
0.08687586 0.44651031 -0.038489968 0.15608469 0.027830383 -0.018799178 0.038039774 0.01747885
0.07002622 -0.07502992 -0.08832091 0.11474826 -0.10989819 0.03165601 -0.39496213 -0.20425035
0.09710458 0.20218329 -0.036707323 -0.39432454 0.14786416 0.041828677 0.762439 0.05155564
-0.2486545 -0.06261225 -0.02177487 0.021705 0.058026075 0.024791136 0.07020694 -0.27905998
-0.0061505605 -0.23108338 0.95706445 0.6699036 0.23295364 0.021465272 -0.034628674 -0.23529737
-0.016460452 0.10985237 0.8473458 0.36078396 0.07094673 0.015111122 -0.14101742 -0.236582
-0.046287432 0.025513617 0.42253023 0.2911599 0.15042348 -0.07525456 -0.23093137 -0.33666828
-0.008327408 0.1371078 0.45007822 0.83063555 -0.023653012 0.030023247 -0.35996988 -0.21267015
0.016500428 0.0028856334 0.34895176 0.3014701 0.20671362 0.039875433 0.18823047 0.0024421783
0.039922785 -0.12597656 0.28767738 0.033357237 0.13939105 0.022623762 1.1433791 -0.4955092
-8.113177 0.7381995 -0.27010885 -1.8058153 1.1449512 0.094344966 0.061783075 0.20899753
0.41747424 0.68427724 -0.44376016 1.3070754 -0.11731612 0.54781216 0.1510104 -0.00566361
0.5757769 -0.037407324 0.021376086 -0.032225147 0.04499988 0.10570632 0.112102084 0.04152716
0.005671747 0.010527546 -0.10003298 -0.017592918 -0.08100433 0.090284385 0.04013486 -0.14176832
-0.005673478 -0.028019391 0.043857206 -0.039333988 0.078414544 0.051957145 0.011001432 0.086472675
0.0095135365 -0.114022635 -0.67385286 0.023803974 0.22887903 0.05191807 -0.033884738 -0.9694965
-0.0076196427 -0.5567681 1.4297278 -0.16475251 2.0685847 0.015985653 0.017688328 1.4555532
-0.029871633 -0.066533804 -0.12523016 -0.040908158 -0.06619022 0.027680656 -0.038658828 -0.25490856
-0.019149525 0.02987348 -0.03688381 0.0033852528 -0.11556186 -0.025001574 -0.045803957 0.08336961

encoder.0.bias f4 [64]
00000000: aa6b 4c3e 6147 6b3f 9404 073f 2e24 92bd
00000010: 3598 db3c 4587 5d3f 1379 89bf 07f4 82be
00000020: d9dd 9cbe 2e79 c6be 1e03 643f 5915 ba3d
00000030: 748f 62bf abbd fe3d 260f f7bd 33f8 223f
00000040: 08aa b7bf 9db8 05c0 0300 793d d413 733f
00000050: 0f2e 42bf 9d71 b1bc 9140 fe3e 0d84 3d3f
00000060: 3ab3 363f 2b24 9abf 5ae4 693e b729 4cbf
00000070: 551c 05bf f4ef 1dbf 7261 acbf cf86 54be
00000080: ce75 1cbf 96e1 723f b108 fabe 0411 393f
00000090: baca 343c 0c94 213e 6dbb 8abf 0256 a13e
000000a0: d30d 13be abde b2be f5fc ebbe e74e 80bf
000000b0: 1d9e 633e caeb babf 8e5f a5be fd6b 4fbe
000000c0: 42fc 4fbf 303c d1be 8ffe 3dbf 2d9d 91bf
000000d0: 81da e73e af38 c6bc 5b1f 0fbf 7776 9abf
000000e0: e914 b13e bdd7 1c3b 3694 4b3e 2047 e63e
000000f0: 0a21 833e 3d6b abbe 9315 bbbf 03db 7fbe
0.19962946 0.9190579 0.5274136 -0.07135807 0.026805976 0.8653453 -1.0740074 -0.25576803
-0.30638006 -0.38764328 0.89067256 0.09086103 -0.8850014 0.1243852 -0.12063436 0.6365997
-1.4348764 -2.089393 0.060791027 0.9495213 -0.7585153 -0.02166062 0.49658635 0.7402962
0.7136723 -1.2042288 0.22841015 -0.7975115 -0.51996356 -0.61694264 -1.3467238 -0.2075455
-0.61117256 0.94875467 -0.48834756 0.7229159 0.011034662 0.15779132 -1.0838448 0.3151093
-0.14360742 -0.34935507 -0.46091428 -1.0024079 0.22228284 -1.4603207 -0.32299465 -0.20256038
-0.8124429 -0.40866232 -0.7421655 -1.1376091 0.45283893 -0.02419695 -0.5590722 -1.2067403
0.34586266 0.00239323 0.19880757 0.4497614 0.25611144 -0.33480254 -1.4615959 -0.2498589

encoder.2.weight f4 [52, 64]
00000000: 1220 2b3d 8650 ef3c 1cac e73d 1dc2 92bd
00000010: c56f 5b3d 30de e83b 3d90 31be c5b6 28bc
00000020: 63fd 0bbe 0841 3cbe 5a39 7b3d 62ac 74be
00000030: 4659 153f dace 983e a3bc 60bd 62f1 a5bd
00000040: bf35 613e e598 6fb9 9a58 653c 16a0 6c3e
00000050: 469d bbbe 3a60 bc3e 2521 083d 9698 503d
00000060: ffd5 49bb 3e2f 50bd 08c8 f33c 0d24 68bd
00000070: b363 2b3d 19d7 50bf 5cb2 febf cd1e 683d
00000080: 8fa4 8b3f fda0 c0ba d627 9d3d f27e 5d3f
00000090: 160e c23c ed09 bbbb 6f75 6f3d c944 243e
000000a0: 0783 593c 6354 e03e 2db5 743e eac3 793f
000000b0: 9e1d 61bd e1c8 3b3e 32d3 133d ad56 353c
000000c0: 8532 1a3d b172 cabc d43e 23bb 660c 40bd
000000d0: bf80 f43c 6f82 9a3e 6b91 0e3e d04a 7c3d
000000e0: 3540 583c 2861 15bd 3c96 883d ade5 b0bc
000000f0: ece5 313c e82d fabc f73a 063d b582 4c3c
00000100: 8511 84bd e76e b7bc b536 85bd 0e50 6ebc
00000110: 9e68 c23f 64bc c7bd 6ab4 b2be 735b 90be
00000120: f0f7 dbbf 153c 823c 4624 f23d 14c5 19bd
00000130: a75f 64bf fd90 b4be 27a9 a73e 0388 05be
00000140: b47c c43c 71ff 0ebd 57db af3e 1b18 933e
00000150: bebe 3d3d 1a50 12be 9709 ef3e 0940 163f
00000160: f8ec 5c3b b428 f9bd bec7 d83c 6bf4 9d3c
00000170: d70a eb3f aa0b 1bbf 2bb5 0abe 8b1f 63bc
00000180: d553 a33f 7521 113e bcef 663c 1acf 2fbd
00000190: 4f0e f838 781b e6bb 3a77 0b3e 71dc 6b3d
000001a0: 420c e7bc 4b36 253e 5003 b7bd 225f d63e
000001b0: 90e3 233d 0cf4 86be 4a3e 87bb 627b 283d
000001c0: 089a 3f3d 6496 a73c 0b3c 8f38 c764 543e
000001d0: aa4f 1f3d 6e55 033e 5304 6ebf 4f62 6bbf
000001e0: 625f a1bb 1403 cabc 7115 ca3d f256 a03b
000001f0: 4576 bd3d f67b a83c d212 073d 55a3 113c
00000200: a4a0 6a3e 62ab 703f 7962 403d b175 97bb
00000210: 0bb2 8abe 110a 33bd 3ec7 e63d d1ae 0cbe
00000220: 00b8 d7be efda 50be 40f6 4dbe 0244 3a3e
00000230: 95d1 843f e101 ca3d 435c cdbd 2672 aabc
00000240: 1444 0c3e 6b2c ccbb d64f 53be 206c 18be
00000250: 8063 eebd ae78 103d d9ee 66be 3dde a9be
00000260: 9994 263b 3246 293e 9b41 543f 0dea 4fbc
00000270: 2428 bbbe 55e5 743f 212c cbbc 85d8 123d
00000280: 5f5d 8d3f d2df 133d 3dc4 11bd 5728 c73d
00000290: 607a c2bf c318 723f bbf9 bb3c 0e27 97bd
000002a0: fad2 20c0 7da9 6fbe 5f22 dc3f 3fe2 653f
000002b0: 44b5 d93c c49a 7d3e 7ae0 a73c c3a2 2abd
000002c0: a917 2ebe 70b6 01bf 2f4a e63f 155e 3dbf
000002d0: d7ed 093f cbe1 463e 9f5a 273a 6f80 093e
000002e0: dfc2 083d 5ab4 d93c 776e 7f3e 7720 a8bc
000002f0: ae59 eabe efe7 b93e 01e7 17bf 2933 613d
00000300: 3f9a a03c 1d89 e9bc 5144 9bbc 4261 e83d
00000310: 2848 1c3d 353e 3fbe fa5e f0be 821f 973c
00000320: 8161 77bf b54a dfbe 1f4c 013e 400c 3d3d
00000330: 87eb 24be b0b7 c53e 4354 04bd 6a17 3d3c
00000340: 4513 60be c061 f1bd 5a73 66bb 6032 8c3e
00000350: 192c 8abd a540 3abe 7787 4abc 8841 9b3c
00000360: 1e56 0a39 63b3 20be bff6 3dbe bbad 713c
00000370: 8bcf dd3c 4374 f2bd b01c eabc 1692 82bd
00000380: 054b 2c3f 6908 32bd fec0 cf3b a4c7 0ebc
00000390: 19ba 173e c72f f73c f81d 37be c00a 293e
000003a0: 70ea f6bd ca30 6cbf 2db6 0a3f 0e77 fd3e
000003b0: 1c8e ddbb 4d8c f2bd 9063 f33c f67d d23b
000003c0: 4c25 f93d d3b4 d3be ec41 16be 733f 673d
000003d0: 32e4 46bd f96b 153e e25e d53f 0b59 0b3c
000003e0: afef 063b 5c9c b1bc 5051 e33e af6d c5ba
000003f0: 40a9 873d a9c2 5b3f d9fc 093d 3248 b73b
0.04177863 0.029213201 0.11312124 -0.071659304 0.05357339 0.007106565 -0.17340179 -0.010297482
-0.13670878 -0.18384182 0.06133399 -0.23893884 0.58339345 0.29845315 -0.054867398 -0.08102681
0.21993159 -0.00022849774 0.013998175 0.23107943 -0.36643428 0.36792165 0.033234734 0.050926767
-0.0030797718 -0.050826304 0.029758468 -0.056675006 0.041843127 -0.8157821 -1.9898181 0.05667
1.0909594 -0.0014696416 0.07673614 0.8652183 0.023688357 -0.0057079704 0.058461603 0.16041864
0.013275868 0.43814382 0.23897238 0.97564566 -0.054959886 0.18338348 0.036090083 0.011068028
0.037645835 -0.024712892 -0.0024909275 -0.046886824 0.029846547 0.30177638 0.1392266 0.061594784
0.013198902 -0.03646961 0.0666928 -0.021593893 0.01085804 -0.030539468 0.032771077 0.012482335
-0.06448654 -0.02239175 -0.06504575 -0.014545454 1.5188177 -0.097527295 -0.3490327 -0.2819477
-1.718504 0.01589779 0.11823325 -0.037541464 -0.89208454 -0.35266867 0.3274624 -0.13040166
0.023985244 -0.034911577 0.3434703 0.2872933 0.046324484 -0.14288369 0.46687004 0.5869146
0.003371058 -0.12165967 0.026462432 0.019281587 1.8362683 -0.6056467 -0.13545673 -0.013862501
1.2759959 0.14172919 0.014095243 -0.042922117 0.00011828227 -0.0070223175 0.136197 0.057583276
-0.028204087 0.16133992 -0.08936179 0.41869456 0.040011942 -0.26358068 -0.0041272985 0.041133292
0.046777755 0.020457454 6.829955e-05 0.20741569 0.038894333 0.12825558 -0.9297535 -0.9194688
-0.0049247006 -0.02465967 0.09867371 0.004893177 0.09251074 0.020566922 0.032976933 0.008889039
0.22912842 0.9401151 0.04696891 -0.004622184 -0.2708896 -0.043710772 0.11268471 -0.13738562
-0.42132568 -0.20396017 -0.20113468 0.18190005 1.0376459 0.098636396 -0.10027363 -0.020806383
0.13697845 -0.006230881 -0.20635924 -0.14884996 -0.11640072 0.03527134 -0.2255205 -0.33177367
0.002541816 0.16530684 0.82912606 -0.012690079 -0.36554062 0.9566243 -0.024801316 0.03585102
1.104412 0.036102124 -0.035587538 0.09724491 -1.5193596 0.94569033 0.02294623 -0.07380496
-2.512877 -0.23404498 1.7197989 0.8979835 0.026575692 0.2476607 0.020492781 -0.041659128
-0.17001213 -0.50669 1.7991389 -0.7397168 0.5387854 0.1942207 0.0006384048 0.134279
0.03338897 0.026575256 0.24944483 -0.020523293 -0.45771545 0.36309764 -0.5933686 0.05498043
0.0196048 -0.028507764 -0.018953474 0.113466755 0.03815475 -0.18676074 -0.4694746 0.018447641
-0.96633154 -0.43611684 0.12626694 0.04615426 -0.16105472 0.38616705 -0.03230692 0.011541227
-0.2188235 -0.117862225 -0.003516397 0.27382183 -0.06746692 -0.18188722 -0.012361399 0.018952146
0.00013192787 -0.1569343 -0.18551157 0.014750893 0.027076503 -0.118385814 -0.028578132 -0.0637552
0.6730197 -0.04346505 0.006340145 -0.00871459 0.14817084 0.03017415 -0.17882526 0.16508007
-0.12056434 -0.92261946 0.5418423 0.49504894 -0.0067613255 -0.118431665 0.029710561 0.006423707
0.12165317 -0.41348895 -0.14673585 0.056456994 -0.048557468 0.1459197 1.6669581 0.008505116
0.002058964 -0.021681003 0.44397974 -0.0015062595 0.06624079 0.858439 0.0336884 0.005593323

encoder.2.bias f4 [52]
00000000: da84 88bf 8286 11bf 3f42 53bf 6711 58bf
00000010: 477a f4bf 2229 6fbf 78ed a8bf 811d b9bf
00000020: 0d01 133f 68c4 6dbd 6175 eebf e834 97bf
00000030: 71a6 ed3e 743b bebf d304 01c0 38e2 6f3e
00000040: 594b d9be 78f3 b33e 1ef1 92be d67a 18bd
00000050: 688e 25c0 c40e 1fbe 05e6 5cbe 5267 edbe
00000060: 62ec fd3e 6d7d 96bf 7dc1 c8be 321b bebe
00000070: c064 23bf d987 28c0 2253 9ebd 51be 76bf
00000080: c878 6ebf b3f3 2b3e 8eb7 10bf 1977 e23e
00000090: ab9e 91bf 9df1 123f b36c 25bf 2153 553f
000000a0: d0e0 f1be 9bce 5abf c9df 14bf b024 86c0
000000b0: 9f94 39be 39e5 d3bd f4a9 dbbe 9cf9 cbbf
000000c0: a799 95be 41b4 dfbe bec0 15c0 1503 043e
-1.0665543 -0.5684587 -0.8252296 -0.84401554 -1.9099816 -0.9342214 -1.319747 -1.4462129
0.5742348 -0.058048636 -1.8629571 -1.1813021 0.46416047 -1.4861894 -2.0159194 0.2342614
-0.42440298 0.3514669 -0.28699583 -0.03722652 -2.5868168 -0.15532976 -0.2157212 -0.4636789
0.49594408 -1.1757027 -0.3921012 -0.37130123 -0.6382561 -2.6332915 -0.077307 -0.9638415
-0.9315305 0.16792183 -0.5653008 0.4423149 -1.1376547 0.5739992 -0.64618987 0.8332997
-0.4724183 -0.85471505 -0.5815397 -4.1919785 -0.181231 -0.10346455 -0.429031 -1.593555
-0.2921879 -0.4369221 -2.339889 0.128918

encoder.4.weight f4 [44, 52]
00000000: 5f27 05bf 37c1 1a3f b33f 8d3e f221 b33d
00000010: 119d 293f c2b6 293f 0955 2a3e 7d67 aa3e
00000020: 9bff fabe da7c b0be aea7 2c3f f50f 2e3f
00000030: 663e b8be 519a 893e 37e9 573f caa2 70bf
00000040: 6f15 133f 8b10 c5be 2708 74bf 44db 74bd
00000050: e7e2 303f d63e 053f 7d3e 12be 6f06 2f3d
00000060: 1452 21bf 43e1 e93d f106 113f 73d7 1ebf
00000070: e79b 82bd 50d2 82c0 6dba 68be 640f c5bd
00000080: efc6 40bd c530 5cbe 47d2 e23e 7193 16be
00000090: e94a 383e 06ac 08bf 7d52 8c3d bb0c 7fbe
000000a0: 1f71 183f ee5e c03e efbc f2ba 865d 143f
000000b0: fdce c83b cf1a 0d3d 34b7 e2bc d145 2e3f
000000c0: e8f4 0a3d 7a68 f43d 2806 1e3f c834 8ebe
000000d0: 9fcb e2be 7706 743f 4d3a ed3d e888 993e
000000e0: d47e b93f 7f83 7e3f 3afc 70bc c8f2 013e
000000f0: bd39 60be cbc0 98be 1006 ac3f a523 b63f
00000100: f005 5bbc d68d 65bf b087 ab3f 1758 febe
00000110: 740c 293f 9456 2fbe c4aa f3be f121 eabe
00000120: 008e cb3f 88dc 363e a36a 0040 efb2 403d
00000130: ef0f 1dbe 23ff ee3d 59aa d03e e7cf 8f3e
00000140: 273e 3cbe d8ce 3d3f 774b 91be 9215 1b3f
00000150: 7989 57bd 4eed 6e3c e123 493f d016 c1bd
00000160: 04d7 be3d 5424 433e e4c2 123e dcaf 03bf
00000170: 2912 423f f185 c83f 2ffc e4bc 331a 8c3f
00000180: 96ac 81be e964 8cbd 9dd2 88bd d287 843f
00000190: 293e 99bf 6230 ce3d 9315 c43f 78d6 ddbd
000001a0: 0d46 ad3d f7dc c23e 93ed 6dc0 8ef0 dd3f
000001b0: 489f 173f 4f37 dc3e e8e7 05c0 9145 633e
000001c0: e368 853c eaaf eebc 5f92 e33e 70a3 82be
000001d0: ccb3 bc3b 3108 30bc 937b b33f 8782 efbd
000001e0: 6888 f53d 63e4 b6bc ce71 1abd 1b78 11bd
000001f0: 0760 ae3e 162f 9ebd f569 a03c 6470 76bc
00000200: c56e 5abc c9ef df3d b5f4 853d 9199 37bc
00000210: 1dce 55c0 7c17 14bd cbca 2b3d 320b 66bb
00000220: f752 41bd 0f97 7abd 8ca3 05bd a7ea 9ebd
00000230: ba70 633b 0709 313a 332f 523d 9aab e3bc
00000240: af52 64bd 317a 0c3b 3693 0fbd 4972 663e
00000250: e151 3fbc aa91 453c 0a9b b9bc cb56 9b3d
00000260: a589 eabc ecb5 16bc 0576 553f 9633 37bc
00000270: 29be 5a3e f230 b03f 7d15 2c3e fa09 e63e
00000280: ad1c a23f 9b71 543f 6ec7 c33f 0ae9 5a3e
00000290: 4553 30bf 1470 16bf f9f0 03bf c28b 723f
000002a0: cc36 51bf cd08 c73f 8579 c13f b2eb 06bf
000002b0: 0927 3f3f 25d3 10bf d018 4ebf f5e8 68bf
000002c0: 0fe9 943f cff9 9e3d a51b f03d afd7 753d
000002d0: 8c2e 81bf 9541 a43e 6d28 133f f56a 903f
000002e0: 506d 08c0 e34a 10be c851 983e ae3a d23d
000002f0: 3aed 953e 80a7 90be cfdd 743f d970 4cbd
00000300: c7b6 4cbc 66f8 21bf 6e97 36bd 240f 8abf
00000310: 8acb 013f ee06 303f 6e21 4dbe cc27 1a3f
00000320: e333 fcbd 0b20 b9ba c05f 4ebf 04ab 1640
00000330: 690e 09c0 4f55 533e 2e13 db3f 4051 10bf
00000340: ed1c 52bd 5abe 763f 3044 2a3f 927e 35bd
00000350: 5e0e 873f 4693 343f 5c9a a23e 04e9 093e
00000360: 27c7 37bf 3e35 05bf 8748 013f bf16 363f
00000370: d439 89be 531d 063f 5ffe 9e3f 5d3d 1ebf
00000380: 8c79 643f 72f6 0dbf ec98 58bf 47b6 3abf
00000390: 83d2 f63e 275c 6cbd a02f efbd c544 a43e
000003a0: 3368 3fbe ce57 133e 1ced 033f 571f 833f
000003b0: 7069 523e cd26 ca3c 594d 1a3e 24d7 4a3e
000003c0: 94e6 893d 5327 d13d 2a16 2c3f 9b9c a7bf
000003d0: 038a 66be 5c6f 36bf 69e7 4b3e d750 12bf
000003e0: 2412 f53d 3a01 bb3e f01c 61be 9352 2abc
000003f0: 11bc 843d 0c0a 8c3e b3d1 823d b5e4 043f
-0.520132 0.6045107 0.2758766 0.08746709 0.6625529 0.6629449 0.16634001 0.3328208
-0.49023136 -0.34470254 0.6744336 0.679931 -0.35985106 0.26875547 0.8434023 -0.93998396
0.5745458 -0.38489184 -0.9532494 -0.05977942 0.69096226 0.52049005 -0.1428165 0.042730745
-0.63015866 0.114199184 0.56651217 -0.620475 -0.06377392 -4.088173 -0.22727366 -0.09622076
-0.047064718 -0.21502979 0.44301054 -0.14704682 0.17997326 -0.53387487 0.06851671 -0.249072
0.5954761 0.37572426 -0.0018519441 0.57955205 0.0061281906 0.034449395 -0.027675249 0.6807528
0.033924967 0.1193399 0.61728144 -0.27774644 -0.44295976 0.95322365 0.115833856 0.29987264
1.449183 0.994194 -0.014708573 0.1269027 -0.21897025 -0.2983459 1.343935 1.4229628
-0.013368115 -0.8966955 1.3400784 -0.49676582 0.66034627 -0.1712287 -0.4759122 -0.4572902
1.590271 0.17857563 2.0065086 0.047045644 -0.1533811 0.11669757 0.40754965 0.28088304
-0.18383084 0.74143744 -0.28377888 0.6057979 -0.05262134 0.014582945 0.7857037 -0.09428179
0.09318355 0.19056827 0.14332157 -0.51440215 0.7580896 1.5665876 -0.027952282 1.0945495
-0.25326985 -0.068551846 -0.06680796 1.0353949 -1.1972095 0.10067822 1.5319084 -0.10831922
0.08460627 0.38059208 -3.7176254 1.7339036 0.5922742 0.43010947 -2.0922794 0.22194506
0.016285365 -0.029136617 0.4444761 -0.25515318 0.005758738 -0.0107441405 1.4022087 -0.11694818
0.11988908 -0.0223257 -0.03770619 -0.035514932 0.34057638 -0.07723825 0.019581774 -0.015041444
-0.013332074 0.10934407 0.06540815 -0.011206047 -3.3407052 -0.03615521 0.041941445 -0.0035101888
-0.047198262 -0.061179217 -0.032626674 -0.077596 0.0034704641 0.00067533593 0.051314544 -0.027791787
-0.055742916 0.0021435136 -0.0350525 0.22504534 -0.011677236 0.012058655 -0.022656936 0.07584914
-0.028630087 -0.009198647 0.8338321 -0.011181733 0.21361603 1.3764937 0.16805072 0.44929487
1.2665001 0.8298585 1.5295236 0.2137796 -0.6887706 -0.5876477 -0.5153957 0.94744503
-0.8172424 1.5549561 1.511521 -0.5270339 0.7466894 -0.5657218 -0.8050661 -0.90980464
1.1633624 0.07762491 0.11724023 0.060020145 -1.009233 0.32081285 0.5748356 1.1282641
-2.131672 -0.14091067 0.29749894 0.102650985 0.29282552 -0.28252792 0.95650953 -0.049912307
-0.012494749 -0.6326965 -0.04457801 -1.078587 0.507012 0.68760574 -0.20032284 0.60216975
-0.12314584 -0.001412393 -0.8061485 2.354188 -2.1415045 0.20638011 1.7115228 -0.5637398
-0.051297117 0.96384203 0.66510296 -0.04431016 1.055126 0.7053722 0.31758392 0.13467795
-0.7178826 -0.52034366 0.5050129 0.7112846 -0.26801932 0.52388495 1.2421378 -0.6181238
0.89247966 -0.5545417 -0.8460834 -0.72934383 0.48207483 -0.05770507 -0.116790056 0.32083717
-0.18692093 0.14388964 0.51533675 1.0243939 0.20548034 0.024676705 0.15068568 0.19808632
0.067334324 0.102125786 0.6722132 -1.3094667 -0.22513585 -0.7126367 0.19912495 -0.571546
0.11966351 0.36524373 -0.21983695 -0.010395664 0.06481183 0.27351415 0.06387653 0.5191148

encoder.4.bias f4 [44]
00000000: d614 5ebe 79de c9bf c64c d4be 607c 12c0
00000010: 717e a3bf 15ef 67bf 7182 7dbf b4bf 6bbf
00000020: 0c77 62bd 52f0 85bf 01d6 053f 5860 33bf
00000030: d04b 04be 721d 27be 2771 45c0 8fbb ffbf
00000040: 1a1d db3e 0b6c 90be 6ac3 40bf 94b4 9fbf
00000050: c72d 8d3f 73de 8d3c 2eee aabf 2f5a f0bd
00000060: d0c0 ffbe 43f9 d63e 032a 10c0 b410 79be
00000070: d3d5 73c0 8446 a0bf 9ba0 70bf 6426 e8bf
00000080: defc e3bf 1a32 373f b50b cc3e 3fa3 fa3e
00000090: 8d10 94bf 5547 27be dc52 1ec0 cca6 3bbf
000000a0: 1bd7 bb3e cbf2 073e ae08 14c0 5c62 c6bf
-0.21687636 -1.5771018 -0.41464823 -2.2888412 -1.2772962 -0.90599185 -0.9902716 -0.9208939
-0.055289313 -1.0463965 0.5227967 -0.70068884 -0.12919545 -0.16319826 -3.0850313 -1.9979113
0.4279564 -0.2820743 -0.7529818 -1.2476983 1.1029595 0.017317986 -1.3353937 -0.11735951
-0.49951792 0.41987047 -2.2525642 -0.24322778 -3.8099258 -1.252152 -0.93995064 -1.8136716
-1.7811544 0.71560824 0.39852682 0.48952672 -1.1567551 -0.16335805 -2.4738073 -0.73301387
0.3668755 0.13276212 -2.3130298 -1.5498767

encoder.6.weight f4 [32, 44]
00000000: 51eb 013e f110 463b 09c5 36c0 a323 d43e
00000010: bb2a b13c ced2 ad3d 9113 98be 590a b33a
00000020: e3fb e3bc 3b3b 583f 8a1e 2cbe 3f25 1bbb
00000030: 195c dbba 9b61 4dbc afb1 c03e 9642 6b3e
00000040: 047e 683c 0b1c bdbc 0637 b23c 773d e0bf
00000050: 6df5 d2bb 48ef cdbc 97bb 083f 41d2 37bf
00000060: f674 573e cc66 bdbd 6883 693e d0ca a6bb
00000070: 59c3 2a3b 822b 4dbc 1ca8 5abf f7a6 a53e
00000080: 91c2 e63e c928 24bc f7e5 36bb 9a29 a43c
00000090: 16e7 a43e 2e1b d6bb b265 423e 8d83 473a
000000a0: 8522 d53b 2a91 8ebc ecf4 bd3e 324b 9f3d
000000b0: 74cb 763d cf87 9abb 7f5f a23e a636 323e
000000c0: b716 513f 495a 93bf a5b4 1c3e 7071 b6bc
000000d0: 3542 05bc 4919 3a3f fc98 ab3b efeb cdbb
000000e0: 8b10 70bb 8921 4dbc 827a 6c3f 59fa e23e
000000f0: 0514 fc3b 31f2 e53b 5eb4 833a 0793 46bf
00000100: 984f 69bc a06f 18bb 306e 603f b9b0 f2be
00000110: 60be 34bd 5d6f 4a3e 62e3 d63e 05fc 9dbc
00000120: ca68 a73c e1e7 d439 fa73 cabd 1e6d d83e
00000130: 5284 1fbd dfc4 31bc 6333 ec3b 199a 27bc
00000140: bda5 d6bf 7005 84bc f7b9 b73e 62c7 043b
00000150: 6377 99bc bebd e6bb 146c b3ba d9e2 083e
00000160: bd47 8a3d 38c7 cc39 2e50 833a dce6 673e
00000170: 2b28 843e 9800 923c 54dc 80bc 1f9f 423b
00000180: 5268 2b3f 2050 19bc 8983 3a3b 8db7 443b
00000190: 6d3d 8dbb 510f 66bd 7d1e 993e 89a0 853e
000001a0: f39b 023d dbe1 b539 c41a 06bc 29ad 26bc
000001b0: 22d4 9a3e 4eff babe fab1 5e3e 1c2c 93b9
000001c0: 209e 8e3b 4aea 9d3c 7046 793e 4ec5 443a
000001d0: 00a4 86bb 8b70 933b 6bc5 9a3c f946 973e
000001e0: ff35 333c 9ea7 c2bc 29cf a83e 17cd 33bd
000001f0: a89e 323c 1397 8d3d 208b 6e3e 39a5 05bb
00000200: 4936 2ebb 17cb 1cbd 2dd3 a23e bf56 0c3e
00000210: 8dfc 023d cae2 88bb 8c4a edba 21bc 973d
00000220: dac5 173d 15b1 3aba 2334 a2bc 533d 65bc
00000230: a5fb 1abf a6f1 dd3b 7d5c c93d 804c 37bc
00000240: 2675 713b d41d f7bb 5fad 583e ecef 973b
00000250: 780b b93c a6c9 25bc c638 613b 1b75 1dbc
00000260: d3f2 743e 2239 54bf cbfd 003e fcaa a83b
00000270: e40c f4bc d2f9 40bb e7d0 883d fe65 baba
00000280: fe2a de39 2d56 e63b 647e 6b3c c21c a2bd
00000290: b723 b0b9 765d 943b 78ea a63e aa03 0f3d
000002a0: b381 33ba b845 243a f1f9 87bb 84dc 66ba
000002b0: 09f8 1c3c 8fb0 063d 85e2 9b3c 960e 06bb
000002c0: b26d 333d ef9b 143a a083 e3ba 67d7 7d3d
000002d0: d13f ca3d c36e 99b8 7c79 623b 60da a83a
000002e0: 74a6 cabc 9f72 2d3b 0314 4f3b d6d7 0fc0
000002f0: 0bbe 343f 4dd0 033c 5d90 793d 5acd 7b3d
00000300: d03a 54bb c839 d4ba 94e7 59ba f346 6dba
00000310: aeac 89bb 17a9 0f3c eac3 eb3d c2d5 d03b
00000320: c00a b63a ec6d 153b a593 633d 6222 5e3b
00000330: 7d34 16bb c91a f13a fbff 91ba 8d9e 883d
00000340: b1d1 923b c40b 033c 16db 0b3b c513 823c
00000350: 7113 d8ba ff1f b3bd b3ae 5e3d 6f5b 8eba
00000360: 3be6 9ab5 2b16 793d d71b 7f3d c538 463d
00000370: 9829 dc3e 9d5e 653f f450 6cbc db91 a23f
00000380: 9d7e c43f 0f21 623c c071 443b c497 823c
00000390: 5b5e 77bc 6e6d f93b c0fc 47be 06aa 803b
000003a0: 89f8 1abc 6571 47bd 0272 bd3f ed32 9e3f
000003b0: 451a 25bd fb83 c13f e5e5 70bc 6889 e7bb
000003c0: 08fc e1bc 36d7 87bd 8d9c c13f 6cb2 3abc
000003d0: 32c4 14be 9f28 0bbc abfb a13f 0c22 9d3c
000003e0: 2bc0 0dbc 7e4a 4bc0 4c72 e23b dc23 bb3f
000003f0: 5956 e1bb 5329 67bd 2000 4bbd 83a6 0ebd
0.12687422 0.00302225 -2.855776 0.4143344 0.02162682 0.084874734 -0.29702428 0.00136597
-0.02783007 0.8446538 -0.16808525 -0.0023673323 -0.0016735821 -0.012535478 0.37635562 0.2297462
0.014190201 -0.023084661 0.021754753 -1.7518758 -0.0064379484 -0.025138512 0.5341124 -0.71805197
0.21040711 -0.092481226 0.22804034 -0.005090095 0.0026056378 -0.01252258 -0.85412765 0.32353947
0.45070317 -0.01001949 -0.0027908066 0.020039368 0.32207555 -0.006534002 0.18984106 0.000761085
0.006504359 -0.017403204 0.37100923 0.07778014 0.06025262 -0.0047158967 0.31713483 0.17403659
0.81675285 -1.1511928 0.15303285 -0.022270888 -0.008133461 0.7269483 0.005236743 -0.006284229
-0.0036630954 -0.012520202 0.9237443 0.44331625 0.007692816 0.007017397 0.001004826 -0.77568096
-0.014240168 -0.0023259893 0.8766813 -0.47400454 -0.04412687 0.19769044 0.41970354 -0.019285211
0.02043571 0.00040608554 -0.09885402 0.4227075 -0.03894455 -0.01085016 0.007208274 -0.010229611
-1.6769329 -0.016115874 0.35884067 0.0020260443 -0.018733686 -0.007041662 -0.0013688826 0.13367786
0.06751964 0.00039058342 0.0010018402 0.2264666 0.25811896 0.017822549 -0.01573006 0.0029696894
0.66956055 -0.009357482 0.0028459749 0.0030016631 -0.004310301 -0.05616695 0.29906073 0.2609904
0.031887006 0.00034691286 -0.008185092 -0.010173121 0.3023997 -0.36522907 0.2174758 -0.0002807089
0.004352346 0.019276757 0.24343276 0.00075062073 -0.004108906 0.0044995 0.018892964 0.29546335
0.010938167 -0.023761567 0.3297055 -0.04389676 0.010902084 0.06913581 0.2329526 -0.002039267
-0.002658265 -0.03827962 0.3180174 0.13704966 0.031979132 -0.004177426 -0.0018103882 0.074089296
0.03705392 -0.0007121724 -0.019800251 -0.013991672 -0.6054023 0.0067731915 0.09832094 -0.011187673
0.0036843508 -0.0075413976 0.21159886 0.004636755 0.022588477 -0.0101188775 0.0034366115 -0.00961044
0.23920755 -0.8289968 0.12596814 0.005147336 -0.029791303 -0.002944578 0.0668047 -0.001422107
0.0004237517 0.007029316 0.014373396 -0.07915641 -0.00033595946 0.004527743 0.3260076 0.034915604
-0.0006847635 0.00062664924 -0.0041496684 -0.0008806663 0.009580621 0.032883223 0.019028911 -0.0020455471
0.043805785 0.0005668988 -0.0017357953 0.061973 0.09875453 -7.3162395e-05 0.0034557274 0.0012882464
-0.024737574 0.0026466025 0.0031597621 -2.2475486 0.7060248 0.008045268 0.06092869 0.061475135
-0.0032383688 -0.0016191537 -0.0008312401 -0.0009051405 -0.004201493 0.0087683415 0.11511977 0.006373138
0.0013888702 0.0022801114 0.055560727 0.0033895005 -0.002291947 0.0018394823 -0.001113891 0.06670866
0.0044805636 0.007998411 0.0021340302 0.015878567 -0.0016485286 -0.08746337 0.054365825 -0.001086099
-1.15409e-06 0.060812157 0.06228241 0.048393983 0.43000484 0.89597493 -0.014423598 1.2700762
1.5351139 0.013801827 0.0029975027 0.015941508 -0.01509818 0.007611922 -0.1953001 0.0039265184
-0.009458669 -0.048692126 1.4800417 1.2359291 -0.040308256 1.5118402 -0.014703249 -0.0070659406
-0.027585998 -0.06632845 1.51259 -0.011395078 -0.14527968 -0.008493572 1.2654928 0.019181274
-0.008651773 -3.1764216 0.006910598 1.4620318 -0.0068767485 -0.056435894 -0.049560666 -0.034826767

encoder.6.bias f4 [32]
00000000: a2fd b3bf ceae 9cbf b1bf ec3d 7e8a a93d
00000010: cd2b 14bf 954e adbf bda6 e3be ff5a b83e
00000020: 6f08 aabf 48e0 20c0 0afd 4c3f cdf6 0b3f
00000030: f555 c0be 02ca edbe c4af 43bf 4a04 323f
00000040: abb0 53bf 7bd2 efbf 884e 4cc0 81b6 3fbf
00000050: cd77 4c3e 2738 6fc0 2827 e13e ec4e 08c0
00000060: 1c84 c0bf ffc4 11bf 4958 43be 366b 22bf
00000070: 6dcc 01be ca92 a3be 47fa 80bf 94fa 42bf
-1.4061778 -1.2240846 0.1156 0.082783684 -0.57879335 -1.3539606 -0.4446315 0.36006925
-1.3283824 -2.513689 0.80073607 0.54673463 -0.3756558 -0.46443182 -0.7644007 0.69537795
-0.8269145 -1.8736109 -3.1922932 -0.74887854 0.19967575 -3.7378023 0.43975186 -2.129817
-1.5040317 -0.5694122 -0.19076647 -0.6344484 -0.12675638 -0.3194793 -1.0076379 -0.761636

encoder.8.weight f4 [24, 32]
00000000: dca3 efbb 0234 54bb 86ec aabc 8184 873d
00000010: 40eb d53e 4e33 d93b 5a76 7cbb 10bf 0a3c
00000020: f9f4 7fbb 00ea 13bc 26ed 49ba d4c3 da3c
00000030: 110a 23bc 5046 9cbd e377 56bb 2831 db3a
00000040: 9612 823e ff07 19bc 1780 0f3e 6617 3eb9
00000050: 7c28 e3bb fa49 7d3d 499a c3bb 43b4 9c3b
00000060: c571 f53d f95f 0fb9 387b 98be dea9 2d3b
00000070: bbb1 f73e f413 27bb 7698 dfbb f7ce 0cbb
00000080: 202c 87bb d081 02bc 7a64 25bc 42a4 42bd
00000090: d432 1a3b f101 04bd e716 84ba 8372 1bbe
000000a0: ffda 57ba 603a 1c3d a0d9 69bd 380d 2b3f
000000b0: 5480 043d 063b 133d a504 9cbb 79e1 bf3b
000000c0: 1f3e 4a3b 22bc 363d 3e69 e33d 17b5 f63b
000000d0: e512 85bd 0003 ed3c 7984 063b 39f9 713b
000000e0: 1a36 c83c 34b3 25bb ce31 a13a 4b19 7cbb
000000f0: 9832 50bb d6cb 823b 9e75 38bd 9c10 113c
00000100: 1443 8b3c 2f9e 69bf 0f03 b63b 1163 1a3c
00000110: 67e9 023a b4c7 50ba 950b 8cbc e2f8 103b
00000120: 01a9 7e3a 7a6e 493e f2a1 deb9 080b 2ebb
00000130: eb65 6f3b 27d4 2abb dbeb 95bc 466b 103d
00000140: d060 b4bb d234 613e e599 b13e 0049 9db8
00000150: 46fd 393c 32d6 983e f1a5 d0ba 34a6 11bb
00000160: 48de b83e 57b8 283f a7a1 a0b9 6669 dcba
00000170: 18f1 3cbb ace9 e5ba 21c8 24b9 1384 7dbc
00000180: 51fa 96ba db60 d9ba 6036 0f3c 6271 a93c
00000190: 5929 ec3a c31e 0e3c a8a0 f03a 517c 6a3c
000001a0: 7c19 103f f5d1 1cbf e8f4 063c 7b04 443c
000001b0: bebb f0bb d9f0 92bb c6f5 4d3b 81c6 09bc
000001c0: 8843 cd3a 9718 14c0 4ad4 8d3d 69d2 0c3b
000001d0: ceac cd3c b812 573d fad4 33bb 14ea 31bc
000001e0: 6733 c83d a8d9 5f3b 7420 62ba fc7b a3bb
000001f0: 819d efbb 4df2 01bf 0e94 02bc 0b30 edba
00000200: 9dec 1a3e f60b 34be 8eda ea3a b947 d038
00000210: 30e9 f039 1981 05bb b881 8dbd 083f 0d3b
00000220: 55e8 a53b 6f4a 813d 347a 84bc 3339 1a3b
00000230: dc10 a6ba 9cba 88bb 43bc 293f c3c9 a5ba
00000240: 9095 30bc b259 723c f01f aebd 5635 023e
00000250: b775 06bc 863d bfbc caad b13b 61cc d339
00000260: 3b2e 0ebc 61c6 8cbf 9aea 6e3a 5534 893b
00000270: cd8b 30bb 903a ae3a 3265 ad3a 4f00 ba3c
00000280: 7ac6 973b e52a 2abb 35a3 cfbb cef3 823b
00000290: b23b bbb9 221e 823b afc5 4dba 40f9 ab39
000002a0: 28f7 64bc 5bfc 3e3e a58a 84bb 5753 2fbb
000002b0: f226 dfbb fb01 083b c54d 1a3a 3a9b 90bb
000002c0: eee6 033c 92c2 343e cd17 d03e ae43 92ba
000002d0: c343 58bc 37a0 a73e 0d3b 173f 4884 13bb
000002e0: 9772 a53e 3ecf d1b9 2291 fdbb e1ca eabf
000002f0: 441b 54ba 98fd 40bc 4a19 9abb 1500 81ba
00000300: 6f83 633a 9960 4dbb f62a 6abc 3f6b 113c
00000310: 320f 60bb acbc 8f3b 9949 8e39 98c0 db39
00000320: 672f 03bc 461a 9abb eaa3 ce3a 44bb 9cbb
00000330: 8f30 16bc 67f5 583c 27cb 1e39 52e9 acbb
00000340: 1126 c93a 564d e2bb 9a03 fa3d 5589 cdb9
00000350: a816 29bb 17c3 953c 0995 823e cfd5 bd3b
00000360: 419a d53d b472 31bb fea5 73bb df47 0c3f
00000370: 0aeb 443a 4e6a bcbb 7181 c53b b3e1 53bb
00000380: 1682 a03d 9025 573b 1124 5fba c2f3 65bd
00000390: 0949 a0bb 1d93 643c 9f1e 7e3c 66f3 20bb
000003a0: 967c cebb 71c0 d0be e3ea 78bc 209f bbbb
000003b0: 9477 80bc b163 173c 30d7 fabc 9ccc a0be
000003c0: c29e 053b dd36 bdbe f831 a33e f9c7 9d3c
000003d0: dc9b c6bb ab36 8abe 0b98 86ba a2ae 62bc
000003e0: 0743 acbe c182 813a c0c4 f2ba 15f6 13bb
000003f0: 510d ceba aed1 ef3b fcf0 153d 9e6c 103f
-0.0073132347 -0.0032379632 -0.020864736 0.0661707 0.41781044 0.0066284304 -0.0038522691 0.008468404
-0.0039055927 -0.009027958 -0.00077028794 0.026704706 -0.0099511305 -0.076305985 -0.0032725267 0.0016723024
0.25404805 -0.009340285 0.14013706 -0.00018128529 -0.0069323163 0.061838128 -0.00596932 0.004782231
0.119845904 -0.00013673295 -0.29781508 0.0026498954 0.48377785 -0.002549407 -0.0068235947 -0.0021485665
-0.004125133 -0.00796552 -0.010094756 -0.04751993 0.002352883 -0.032228414 -0.0010077626 -0.15180402
-0.0008234232 0.03814161 -0.05709231 0.66817045 0.032348946 0.03594496 -0.004761296 0.005855736
0.003085978 0.04461301 0.11104058 0.007528912 -0.064977445 0.028932095 0.0020525737 0.003692223
0.02443986 -0.0025283815 0.0012298168 -0.0038467224 -0.0031768437 0.0039915843 -0.045034043 0.008854058
0.016999759 -0.91256994 0.005554564 0.009423033 0.0004993886 -0.00079643284 -0.017095366 0.0022121002
0.00097145146 0.1967105 -0.00042463798 -0.0026556868 0.0036529254 -0.0026066394 -0.018300941 0.035258554
-0.005504705 0.21992806 0.34687725 -7.499941e-05 0.011351889 0.29850918 -0.0015918595 -0.002222431
0.36107087 0.6590628 -0.00030638019 -0.0016816079 -0.0028830227 -0.0017540953 -0.00015714813 -0.0154733835
-0.0011518692 -0.0016584651 0.008740991 0.020683948 0.0018017694 0.008674326 0.0018358426 0.014311866
0.56288886 -0.6125787 0.008237101 0.011963959 -0.0073465994 -0.0044842777 0.003142701 -0.008409143
0.0015660385 -2.3140008 0.069252566 0.002148772 0.025106814 0.052508086 -0.0027440176 -0.010859031
0.09775429 0.0034156833 -0.0008626052 -0.0049891453 -0.007312477 -0.50760347 -0.007969869 -0.0018095983
0.15129323 -0.17582688 0.0017917918 9.931572e-05 0.00045950105 -0.0020371138 -0.069095075 0.0021552462
0.0050630965 0.06313025 -0.016171552 0.0023532629 -0.0012669819 -0.004172636 0.6630289 -0.0012648631
-0.010777846 0.014791893 -0.08502185 0.12715659 -0.008206776 -0.023344766 0.0054223286 0.0004039733
-0.008678014 -1.099804 0.0009113938 0.0041871467 -0.0026938797 0.00132926 0.0013229011 0.022705225
0.0046318145 -0.0025965509 -0.0063365945 0.003996349 -0.00035711896 0.0039708773 -0.00078495865 0.00032801367
-0.013974942 0.18650953 -0.004044848 -0.0026752555 -0.0068100626 0.0020753134 0.00058862224 -0.0044130357
0.008050663 0.17652348 0.4064316 -0.0011159086 -0.013199749 0.32739422 0.5907448 -0.0022509266
0.32313988 -0.00040017994 -0.0077382484 -1.8343164 -0.0008091221 -0.011779211 -0.0047027217 -0.0009841943
0.0008678948 -0.0031338094 -0.014292469 0.008875667 -0.0034188745 0.004386505 0.00027139185 0.0004191443
-0.008006907 -0.004702839 0.0015765403 -0.004783066 -0.009166851 0.013242102 0.00015143734 -0.0052768374
0.0015346428 -0.006906192 0.12207718 -0.00039202967 -0.0025800858 0.018281503 0.2550433 0.0057933102
0.10429812 -0.0027076425 -0.0037177796 0.54797167 0.000751183 -0.005749977 0.0060273935 -0.0032330572
0.07837312 0.0032828785 -0.0008512149 -0.05614067 -0.004891519 0.01395109 0.01551023 -0.002455914
-0.006301473 -0.4077182 -0.01519272 -0.0057257563 -0.01568202 0.009240077 -0.030620188 -0.31406105
0.0020388816 -0.3695592 0.3187406 0.019260393 -0.0060610604 -0.26994833 -0.0010268701 -0.013835581
-0.33644888 0.0009880887 -0.0018521771 -0.0022577096 -0.0015720521 0.007318697 0.036606774 0.56415737

encoder.8.bias f4 [24]
00000000: b00c 9ebf 434f 2ebf 1e7a 31bf 22f1 84bd
00000010: b282 00bf 1e40 96bf 7629 43bf db3f 77be
00000020: 76e1 c13d 8367 82bf d7fa 583d bb34 88be
00000030: 3b39 77bd 5415 2ebf c478 0b3e 35d8 4abe
00000040: cb87 073c 6465 66be c1a0 253f e351 ed3e
00000050: f7ae 91be c56f 5ebe c896 d8bd bde2 db3e
-1.2347622 -0.68089694 -0.6932696 -0.06491305 -0.50199425 -1.1738317 -0.7623514 -0.24145453
0.094668314 -1.0187839 0.052973595 -0.2660273 -0.060357314 -0.68001294 0.13620287 -0.19809039
0.008272122 -0.22499615 0.64698416 0.46351537 -0.284538 -0.21722324 -0.10575634 0.42946425

encoder.10.weight f4 [16, 24]
00000000: c077 40bb d9eb c43b c5da deb9 d3f5 b4bf
00000010: 060c 81ba 3133 8fbb be1d bebb 8e7b 933b
00000020: 2eda 423b 6a85 e8bb 90ae 1aba f529 77bb
00000030: a732 3a3b e4c2 fbbb 53d1 d23a 40f0 c13b
00000040: aeb8 5b3b 9030 a2bb 11a1 bdbb 00e3 1bba
00000050: 3c7b c93b dc10 e3bb e0b9 693b 0f48 f43b
00000060: e637 aa38 7610 22bf 8514 f83a d908 62bc
00000070: 9d3a 91ba b96e 543c d24e 1fbc fc87 bbbb
00000080: ffd2 a2bb 87af 8d3a 333d 40be 5b90 12bc
00000090: bab7 1dbc c8a8 173c 2911 97bd 285c c63e
000000a0: 78e3 19bd d50d 82ba 816c 79bd 77e1 9bbd
000000b0: e04d b2bd b544 e93b f18c 58bb c1d1 9f3a
000000c0: 8be0 aa3e 1485 3bbc 654a 2b3a 8bc8 62b9
000000d0: 991e ec39 5bf2 1abb c3d6 a3bb 0292 093b
000000e0: 3b6c 27bf fc85 b23b 7877 28bc d70b 4cbb
000000f0: 73e4 723b 9a80 853a 66f4 ecbb 72a9 413c
00000100: 833f 7bbc d427 87ba 2f10 01bc d772 903d
00000110: d5fd ecbb ff8d 27bb 8233 943d 011f 30bb
00000120: 30a3 3b3b b74c 63bb 4c45 7cb9 21c5 673b
00000130: ca73 2739 e0e0 57bf 569a e53e 42c1 a3ba
00000140: 1871 06bb 6757 a3b9 9e4a 35bc d04a 0c3a
00000150: 2533 6339 9d60 563b 8470 29bc 23e4 283c
00000160: f43d afbb a587 83ba 27b5 d3bb 8a47 2abc
00000170: 1825 a7b9 1f11 e239 feda 55ba f2e5 d33a
00000180: 1f51 cf3a f52b 03bb ff6e cbbe a791 d13a
00000190: 490e c83e 47f7 f7ba ed53 a4b9 2d02 043d
000001a0: 9bea 50bb f26b 4abb 34dc 0eba b71d a93b
000001b0: 4dc5 71bc ef5e 123c 021c ac3a 2db3 103b
000001c0: fe1d 553a 9356 5abd 7429 943b 13c5 843a
000001d0: 5aff 783b 402b 2fbe bf61 5dba b762 caba
000001e0: f2c9 d5ba 07aa d5bb 2cff 113d af8d 6239
000001f0: 7dcf 1abd 9de8 04bc c82a 76bb 338b b53e
00000200: a8e0 493b f62d 2dbb b653 a13b 7699 cbbb
00000210: 7b5b 00be 240b d33d 69ee db3a 2d85 f13b
00000220: f686 19bc 907e 14bf f08b 0e3c f847 a53b
00000230: 6de8 173b ddb5 673b 6817 193b 87d5 513a
00000240: 04ad e63b 64dc 493c 4222 26bb 3394 29bc
00000250: 58d7 abbb d606 7dbb ccb4 82bb 0742 b0bc
00000260: f1bf d0bb 4c3e 06bf 7a43 b7bd e563 923f
00000270: 57d5 923b 0dae 05ba d8b1 8fbc 7532 c539
00000280: 2b2a 40bd 297a 4cbc 6556 e2bc bb5f 50bd
00000290: 78c0 65bd 3ccd 97b9 b154 a4bc 7b9c 043a
000002a0: b542 f43d 4c37 ea3c baaa 8ebc abe2 babb
000002b0: 8a2b 083a 4c66 64bc 225d 09bc fde7 2c39
000002c0: 0ac5 37be a420 f63b 30d1 11bc 2b1a cdbb
000002d0: 5be5 633b 5904 963a c784 babc 77ef 80bc
000002e0: 4743 5ebc 8920 3c3b 3a5e 3d3b 0718 16bf
000002f0: e10e 4cbb c535 103c 9c26 43be 6bea b6bb
00000300: e4af f6ba 737a 3e3c be4a 593c 069f 073b
00000310: 8382 823c 789d edbb 72a6 533b aff9 aebd
00000320: 2ce7 923a 272c 8eba 4cbd d33b 539c ba39
00000330: 3bd8 e7be 6638 bc3e e717 d7bb 0936 22bc
00000340: ca15 e5bb 281f d93d 3b6c 97bb 32c5 2b3b
00000350: fce6 33bb 0b46 2f3e 99c3 f437 c229 833a
00000360: 3862 9939 6098 243d b35b 62bc 97c6 78bc
00000370: 0f9f 8bbc ab20 07bc 8bc5 0fbb 1b12 88bc
00000380: 36af f43b dc68 713c a928 10be 2860 4fbd
00000390: e293 3939 37c1 373a 6b79 87bd 7f0d 81bc
000003a0: fbd1 303b fcd8 24bc 4782 54bf b2f4 a9bd
000003b0: a8dd c4bd 7c6e 78bb f1da 02bc 3c2b b239
000003c0: 7d73 e039 0ae0 043e 2766 1e3a 70ae fcbc
000003d0: 8c7f 04b9 815b 6d39 baba 29bc 575e ecbc
000003e0: 750e 26bb ed5d 3e3c 2705 4bbf 768f 38bd
000003f0: 35e1 05bc 75c9 a43b a880 fabd acf0 86bd
-0.0029368252 0.0060095605 -0.00042506136 -1.413752 -0.0009845502 -0.004370116 -0.0058018854 0.004500813
0.0029732096 -0.0070959823 -0.00059006456 -0.0037714217 0.0028411539 -0.007683145 0.0016084112 0.0059185326
0.0033526826 -0.0049496368 -0.005787023 -0.00059466064 0.006148724 -0.0069295 0.0035663769 0.007454879
8.1166436e-05 -0.6330637 0.0018927014 -0.013796055 -0.001108009 0.012965851 -0.009723382 -0.0057229977
-0.0049690004 0.0010809758 -0.18773346 -0.00894555 -0.009626323 0.009256549 -0.0737632 0.38742185
-0.037570447 -0.0009922335 -0.060894493 -0.076113634 -0.0870626 0.007118786 -0.0033042992 0.0012193249
0.33374438 -0.0114453025 0.0006534218 -0.00021627748 0.00045036225 -0.002364299 -0.004999967 0.0020991568
-0.6539952 0.005448101 -0.01028239 -0.0031134987 0.0037062436 0.0010185421 -0.007231283 0.011820184
-0.015334967 -0.0010311552 -0.007877394 0.07053154 -0.0072324076 -0.0025566814 0.07236387 -0.0026873949
0.0028631203 -0.0034683177 -0.00024058408 0.00353653 0.00015969496 -0.84327507 0.4484431 -0.0012493508
-0.0020514186 -0.00031154903 -0.011065153 0.0005351724 0.0002166746 0.0032711395 -0.010341767 0.010308298
-0.0053479616 -0.0010034932 -0.006460804 -0.010393033 -0.0003188036 0.00043118835 -0.00081579376 0.0016166552
0.0015817023 -0.0020015214 -0.3973312 0.0015988842 0.390734 -0.0018918299 -0.00031343047 0.032228637
-0.0031878117 -0.0030887094 -0.0005449683 0.005161013 -0.014756513 0.008933767 0.0013130906 0.0022079453
0.00081297744 -0.05330522 0.004521543 0.0010129533 0.0037993998 -0.17106342 -0.0008445046 -0.0015440796
-0.0016310795 -0.006520513 0.03564374 0.00021605821 -0.037795532 -0.0081121 -0.003756212 0.35457763
0.0030804072 -0.00264251 0.004923309 -0.0062133623 -0.12534897 0.10304859 0.0016779426 0.007370612
-0.009370556 -0.5800562 0.008700356 0.0050439797 0.0023179308 0.0035356202 0.0023359898 0.00080045353
0.007039668 0.012320612 -0.002535001 -0.010350275 -0.005244177 -0.003860881 -0.003988838 -0.02151586
-0.0063705374 -0.5243881 -0.08948417 1.1436735 0.0044809985 -0.0005099483 -0.017540857 0.00037612361
-0.046915215 -0.012480297 -0.027629087 -0.050872546 -0.056091756 -0.00028953876 -0.020059915 0.0005058718
0.11926786 0.02859082 -0.017415393 -0.0057032905 0.0005194476 -0.013940405 -0.008384021 0.0001648962
-0.17946258 0.0075112153 -0.008899972 -0.006259223 0.0034774158 0.0011445387 -0.022768391 -0.015739186
-0.013565845 0.0028705916 0.0028895275 -0.5863041 -0.0031136798 0.008801882 -0.19057697 -0.005582144
-0.001882073 0.011625874 0.013262449 0.002069415 0.015931373 -0.0072514378 0.0032295254 -0.08543717
0.0011207811 -0.0010846899 0.006461775 0.00035593155 -0.45282158 0.3676178 -0.0065641287 -0.009900578
-0.006991123 0.10601646 -0.0046210564 0.0026210067 -0.002745091 0.17116563 2.9178149e-05 0.0010006952
0.00029255613 0.04018438 -0.013815808 -0.015184066 -0.017043618 -0.008247535 -0.0021937813 -0.016610196
0.007467176 0.014734473 -0.1407801 -0.05062881 0.00017698065 0.0007009687 -0.066149555 -0.015753506
0.0026980627 -0.010061499 -0.8301129 -0.08298625 -0.0961259 -0.003790765 -0.00798677 0.00033983018
0.00042810655 0.12976089 0.00060424436 -0.030844897 -0.00012636016 0.00022636169 -0.0103594605 -0.028853578
-0.0025338207 0.011619073 -0.79304737 -0.04505869 -0.008171369 0.0050288984 -0.122315705 -0.06588873

encoder.10.bias f4 [16]
00000000: 161b 1ec0 e479 a2bf ee33 85bf b474 a3bf
00000010: 72fb 6abf 97d9 e0be 9633 d0bf b5bb 82bf
00000020: bad7 4fbf 728b 5cbf b9d6 35bf 821e 25c0
00000030: 2ffd aabf 9cb2 87bf 7af9 52bf 64ca 2abf
-2.4704032 -1.2693448 -1.0406473 -1.276999 -0.91789925 -0.43916008 -1.6265743 -1.0213534
-0.8118855 -0.86150277 -0.71030766 -2.579987 -1.3358516 -1.0601382 -0.8241192 -0.66715074

decoder.0.weight f4 [24, 16]
00000000: ca2f 10be 1df0 87bd 2715 ba3b 9e4a bb3c
00000010: 3068 26bc 81f1 27bb 6985 5dbd 14e9 023e
00000020: 862c 62bd 8f74 d5be 4ea7 4a3f 5061 8bbc
00000030: 82e7 4cbc edca 69bf f91a 9cbd f457 863a
00000040: ed22 50bd 1428 f53d 1854 2a3f 4a24 2fbd
00000050: 43f0 ecbb bab0 b43c ab1b 8ebc 1b02 97bf
00000060: 4e68 04bd 758c 433e cba2 01be 06e6 95bb
00000070: df83 74bf 4138 263d 35c9 8abe a483 473d
00000080: b23a 22bd b5a2 2f3d 9c9f eb3b 47dd 823c
00000090: 1a04 873b 3856 073c e0fe fb3c 2cc5 2d3e
000000a0: b468 a8bc b902 babc 7144 9bbe ed7b cd3a
000000b0: 47cd e3bc 61ab f0bb d1da 49c0 2379 97bd
000000c0: e55b 603c d049 003d c42a 073c 26ca 763c
000000d0: e20f e3bf 0baa 8b3e b8d2 863a ec95 07bc
000000e0: f328 85bd b350 863c 6c3c b93c e148 f23b
000000f0: 67ee 86bb d119 4e3d 02e6 0fbd 13c6 083c
00000100: ab62 d9bc b4dc 06bf 66ee 233e c230 b7bd
00000110: 9358 afbb b6d9 2d3d cffe 863e 93c7 55be
00000120: 0dc5 2e3d 6b9c dabf 6181 933e 8c8b af3c
00000130: f7db 08be a3af c73e 5c9a 143e b10e 1bbf
00000140: 45e3 be3d 96ae 023e 36f5 8cbe 7759 4a3a
00000150: 4544 c4bd bd69 e4bd 5123 743a 2536 5bbf
00000160: fc51 93bd 70e6 7bbe 86da b93e 9e55 463c
00000170: 2745 853e 406b 5bbf 2260 28be a27c 09be
00000180: 0d17 e03d dba0 953c 596e 4abb 9e54 823b
00000190: aa6b 763e 7993 8f3f e915 ecbc 4d53 9abd
000001a0: 234e 77bf e807 153d c8e5 8c3d 5016 dc3b
000001b0: c234 18bc f2c1 e33c 5072 dbbc 3523 2cbd
000001c0: c66d 4bbd 4df8 823e 1a20 a83f 110e a6bd
000001d0: cc04 913a 7f18 a93c c934 f4bb 6b13 4ebe
000001e0: e031 c1bd f38f b4bd 444a 27be cbce 80bc
000001f0: 0f8a 593f 38ac f23c 7e99 8ebd 9203 ce3d
00000200: 2dab b7bb efd6 a1b8 339c c739 18e8 323a
00000210: 4d01 0cba ec21 adba d3fe 23bb fdab 2c3a
00000220: 37f8 3cba b36a 503b 66e3 6e3c 1fe3 1eba
00000230: 9115 b6ba b357 f6bb 6b76 8f3a e98a 9dba
00000240: 8549 c9bb 0f2f a23d f690 ccbc 5dde 8ebc
00000250: 1af3 e23b 7e34 8a3a 2d83 973f cc4c a23d
00000260: 97b2 913b 6402 f9ba 4672 24be 5c6d b0ba
00000270: 281e dcbc ade2 19be df05 c9bc f7b4 7b3f
00000280: afb5 16c0 a7ef fbbc 18a5 d63b 8209 b43c
00000290: 2498 0b3d e125 8a3d 81e3 0abd 2342 09bd
000002a0: 708a 9b3c 43c4 f2bc dab0 f8bc 4118 aa3f
000002b0: 24df f23a d269 81bb 8c5d 93bd 791c d2bc
000002c0: ba35 0ebd fd0c c6be f2bc 983c e96d bb3f
000002d0: 612a 1bbc 5185 133c 4f5e 213d f87e 9fbd
000002e0: a7ea b0bd 6856 8ebd 7bab 5bbe 99bb 83bc
000002f0: 28d0 3cbc 6a61 60bd 3d92 a73d bd97 d53d
00000300: 2328 a5bd 22ec 2d3f f09d fabd 2e39 d43d
00000310: d53d ce3c 77db 473d bee3 fb3e faec fe3e
00000320: 9f71 56bc b1c3 043f 9d3c 26bb 9eff a63c
00000330: 530b 343e 5711 393e ba0e e23c 0db4 bbbf
00000340: 1dfe 1a3e 8b71 d43c beb2 e8bb 5dd0 b53c
00000350: 07c8 cfbc c221 0fbd 5976 f5bc 6ecc d4bd
00000360: 8a84 32bd a4f3 9abe cdbe 84be 039e 833c
00000370: 4e12 6b3c 62d3 d1bd 3ce2 18bf e62b a13c
00000380: a75f 12be abd8 6dbe b5c7 963d ee73 0bbd
00000390: 8ced 9d3d 3caa b03d 9841 a6bb ce28 f73d
000003a0: 4305 263e a5de ff3e 7e69 61bd 48bd 80bc
000003b0: 0687 7cbd 4aa6 423f 3339 613e d18a ae3d
000003c0: 9465 aabc 513a 4fbf ff7f 22be 6b32 02bc
000003d0: 30c0 94bb d5d9 a0bc 3a56 5b3d 310a c3bd
000003e0: 07a3 0cba d2b8 c93e 6208 933f 444c b83a
000003f0: a99d 763e cb9c 013f 9878 0abf bed3 ef3d
-0.1408073 -0.06637595 0.005678791 0.022862729 -0.010156676 -0.0025626125 -0.054082308 0.12784225
-0.055218242 -0.4169049 0.79161537 -0.017014176 -0.012506368 -0.91325265 -0.07622332 0.0010249601
-0.050814558 0.11970535 0.66534567 -0.042759217 -0.00723079 0.022056926 -0.017347177 -1.1797518
-0.032326035 0.19096549 -0.12659757 -0.00457454 -0.9551372 0.04058099 -0.27106634 0.048709527
-0.039606757 0.04287978 0.007190658 0.015974654 0.004120362 0.008260302 0.030761182 0.16969746
-0.020557739 -0.022706376 -0.30325654 0.0015677192 -0.027807845 -0.0073446487 -3.1539805 -0.07396152
0.013693784 0.031320393 0.008249942 0.015062844 -1.7739222 0.2727817 0.0010286188 -0.00827549
-0.06501951 0.016395902 0.02261182 0.0073939417 -0.0041177752 0.05031759 -0.035131462 0.008348006
-0.026536306 -0.52680516 0.1600891 -0.08944847 -0.005351135 0.042443953 0.2636628 -0.20876913
0.04266839 -1.7078985 0.28809646 0.021428846 -0.1336516 0.39001188 0.14512008 -0.6056929
0.09320692 0.12761912 -0.2753083 0.000771902 -0.09583334 -0.111529805 0.0009313124 -0.85629493
-0.07193372 -0.24599624 0.36299533 0.012105374 0.26029322 -0.85710526 -0.16442922 -0.1342645
0.109418966 0.018265178 -0.0030888526 0.0039773723 0.24064508 1.121688 -0.028819041 -0.075354196
-0.966036 0.036384493 0.06879765 0.006716527 -0.009289922 0.027802441 -0.026787907 -0.042025764
-0.049665235 0.25580063 1.3134797 -0.08108152 0.0011064052 0.020641563 -0.0074525815 -0.20124595
-0.09433341 -0.08816519 -0.16336924 -0.015723607 0.84976286 0.029623136 -0.0696287 0.10059275
-0.0056051225 -7.717113e-05 0.00038072615 0.0006824746 -0.000534077 -0.0013208962 -0.0025023713 0.00065869075
-0.0007208618 0.003180188 0.014580583 -0.00060610654 -0.0013891925 -0.007517779 0.0010945325 -0.0012019548
-0.0061427974 0.07919132 -0.024971467 -0.017440015 0.0069259526 0.0010544208 1.1836907 0.07924804
0.0044463384 -0.0018997905 -0.16059217 -0.0013460326 -0.026869848 -0.15027876 -0.024538932 0.98323005
-2.354839 -0.030753924 0.0065504424 0.02197719 0.03408064 0.06745506 -0.03390837 -0.03351034
0.01898691 -0.0296346 -0.030357767 1.3288652 0.0018529636 -0.0039493823 -0.07195577 -0.025648342
-0.034719206 -0.38681784 0.018644784 1.4642917 -0.009470553 0.009003953 0.03939658 -0.07787889
-0.086385064 -0.069500744 -0.21452133 -0.016080664 -0.011524238 -0.0547804 0.081821896 0.104293324
-0.08064296 0.67938435 -0.122371554 0.10362469 0.025175968 0.048793282 0.4919719 0.49790174
-0.013088613 0.518611 -0.0025365718 0.02038556 0.17582445 0.18073021 0.027594913 -1.4664322
0.15135999 0.025933048 -0.007101386 0.022194082 -0.025363935 -0.034944303 -0.02996366 -0.10390554
-0.04358343 -0.30264008 -0.2592682 0.016066557 0.014347626 -0.10245396 -0.59720206 0.019674253
-0.14294301 -0.23227184 0.0736231 -0.034046106 0.07711324 0.0862622 -0.0050737374 0.1206833
0.16212945 0.49974552 -0.055032246 -0.015715256 -0.061652206 0.76034987 0.21994476 0.08522571
-0.02080039 -0.8094836 -0.15869139 -0.007946591 -0.004539512 -0.01963512 0.05354903 -0.09523428
-0.0005364869 0.3939882 1.1486933 0.0014060815 0.2408358 0.5062987 -0.5409026 0.117103085
