aePyTorch/trained_models/L64.52.44.32.24.16B128Lr3e-03MoreDataNewNorm/bestModel.pt (torch, 109703 bytes, 24 tensors)

encoder.0.weight f4 [64, 67]
000000 25 7a 37 be 90 0b 54 3e 14 15 2a 3e f7 7e cf 3d
       -0.17917688 0.20707536 0.16609603 0.101316385
000010 0d 18 95 be d8 c2 a2 3d 02 83 24 be 33 d0 12 3c
       -0.29119912 0.0794732 -0.160656 0.008960771
000020 0d 5d 83 be 17 42 7c bd 65 ab 5b 3e 74 fa ae 3e
       -0.2565693 -0.061586466 0.214521 0.34175456
000030 e5 dc 1e be 91 85 1f bc 1d ac a7 bb 20 bd 7b 3d
       -0.15513952 -0.009736435 -0.005116953 0.06145966
000040 d0 2c d9 be 74 55 b5 3d 5b 37 5a 3e b1 a7 b1 be
       -0.42417002 0.088541895 0.21310179 -0.3469825
000050 66 8f 11 be 74 d5 44 be 9e 56 09 be dd 20 45 bc
       -0.14214858 -0.19222051 -0.13411948 -0.012031761
000060 e5 c5 8c be 49 6d a6 bd 21 ef ee 3d c4 65 39 3e
       -0.27494732 -0.08126313 0.11666704 0.18105227
000070 ab 61 a4 be 6a 5c 42 be e1 55 0b be ef f0 29 c0
       -0.32105765 -0.18980566 -0.13606979 -2.6553304
000080 8b 6b a5 be 04 6b 18 3d 2b 71 65 bc ae 2b af 3d
       -0.3230861 0.037211433 -0.014004032 0.08553253
000090 25 ed 37 be 0b 50 55 be ab b7 c2 bd 98 5a bb 3d
       -0.17961557 -0.20831315 -0.09507688 0.09148139
0000a0 42 fa 50 be 10 d7 ba 3a 17 b3 39 3d e3 71 d6 3d
       -0.20407966 0.0014254767 0.04533681 0.10470941
0000b0 91 56 e0 bd a4 11 c6 bd ff 1d 3b be bd f1 40 3e
       -0.10954011 -0.096713334 -0.18273161 0.18842216
0000c0 ce 2e 1e 3e 2b 6e af 3c e0 e8 07 3d fd a9 8d 3e
       0.15447542 0.021414837 0.03318107 0.27668753
0000d0 c5 8f 41 be 4b c3 8e be 89 2d c7 bd 49 98 50 3d
       -0.189025 -0.27883372 -0.09725482 0.05092648
0000e0 24 ff 33 3f ee 64 d4 3e cb 24 26 bd 39 4c c4 be
       0.7031119 0.41483253 -0.040562432 -0.38339403
0000f0 42 35 d4 be af 59 15 be 79 d3 76 be 30 74 b9 3e
       -0.41446882 -0.14584993 -0.24104108 0.36221457
000100 f4 3a 6c bd 14 fb 3a 3d 1f 1c 09 be 46 84 70 be
       -0.05767341 0.045649603 -0.13389634 -0.23487958
000110 95 c1 ee 3d fb 2d 43 be 26 ad 2e bd c7 cb 07 3e
       0.116580166 -0.19060509 -0.042645596 0.13261329
000120 fb 55 8a be e8 05 8e 3d 41 27 58 bc 6a 90 2b bf
       -0.27018723 0.0693472 -0.013192953 -0.67017233
000130 88 61 0e 3d 07 1d bb be c2 c4 53 3f 75 e1 43 be
       0.03476098 -0.36545584 0.82722104 -0.19128974
000140 7e 87 83 bd 83 f7 b6 bc bf b2 c3 ba d2 54 7f be
       -0.064223275 -0.02233482 -0.001493059 -0.249347
000150 4b f2 48 3e 63 33 31 be 1b ce 69 3e 0e 3b 05 be
       0.19623677 -0.17304759 0.22832529 -0.13010809
000160 32 b0 52 bc 6a 0d 88 bc 08 ce ab 37 f9 89 c3 be
       -0.012859391 -0.016607959 2.048073e-05 -0.38191202
000170 26 38 d1 3d dc 51 f6 bd d1 cc f3 3e 05 2d ba bd
       0.102157876 -0.12027332 0.476172 -0.09090618
000180 00 02 0c 3d 94 1a 1e 3e c3 66 24 3d 74 33 18 bf
       0.034181595 0.15439826 0.040137064 -0.5945351
000190 06 91 aa 3e e8 9c 25 bd e7 9a a9 3e 25 ce 1a 3d
       0.3331377 -0.04043284 0.33125994 0.03779425
0001a0 2d a5 53 bd e1 d2 8f 3f ec a2 05 3e ed d4 f9 be
       -0.051671196 1.123623 0.13050431 -0.48795262
0001b0 97 ed dd 3c bb 89 f2 3d 94 12 94 3e c1 41 86 bd
       0.02709083 0.11842676 0.28920424 -0.0655551
0001c0 0a cc fa 3d 79 b9 72 3e 6b b6 34 3f ae 66 88 be
       0.122459486 0.23703565 0.7059085 -0.26640838
0001d0 72 00 cd 3e 75 9f 15 3f a7 43 6b 3f 4f b1 b5 3d
       0.40039402 0.5844644 0.91900104 0.088717096
0001e0 89 b8 b2 be 2a b6 87 bc 56 8f 0e bd 26 58 34 3c
       -0.34906414 -0.016566355 -0.034804665 0.011007344
0001f0 9b e4 43 bf 8d 6e d2 bc 66 40 ce 3b 49 e2 db be
       -0.765207 -0.02568748 0.006294298 -0.4294608
000200 ae 7d 1f bf 90 7f f1 be ea c3 81 3e dc 62 f2 3c
       -0.62301147 -0.47167635 0.25344783 0.029588155
000210 ba 57 b8 bd 81 9a 91 be c9 66 ed bd 86 ad d3 3d
       -0.090011075 -0.2843819 -0.1159187 0.10335831
000220 53 33 6f 3e 9c 23 da 3e 45 df fe bd 0a 7b 09 be
       0.23359422 0.42605293 -0.12444929 -0.13425842
000230 ba e6 d0 3d f0 d1 50 3d 76 0f 23 3d 22 03 12 be
       0.102002576 0.050981462 0.039809667 -0.14259008
000240 e2 88 1f 3e 01 1f ad be 02 29 02 be e4 62 62 be
       0.1557956 -0.33812717 -0.12710956 -0.22108036
000250 1b 49 a3 3d d7 2d 50 3b b0 2c d5 3c f6 34 f4 3e
       0.07972928 0.0031765604 0.026022285 0.47696656
000260 70 1b 73 3e a5 cb 26 3f 61 4e 92 3d a0 cc 3d be
       0.23740935 0.65154487 0.07143856 -0.1853509
000270 48 3f 3a 3e f7 78 45 3d c7 b9 c3 bd 42 8a 1c be
       0.18188202 0.048211064 -0.095569186 -0.15287116
000280 60 e2 7f 3e 05 e9 e9 3e c0 be d8 3d 9e 53 32 be
       0.24988699 0.45685592 0.10583258 -0.1741471
000290 78 07 10 be 9f bd c6 3b ab e7 26 3e d4 98 2e be
       -0.14065349 0.006065085 0.16299312 -0.17050487
0002a0 3a 8a ab 3d 2a 6c 27 3e 24 58 1e 3e 52 6b 9f bb
       0.08375974 0.16349855 0.1546331 -0.0048650885
0002b0 e2 7c 3b bf 40 1d b7 bc 47 c6 7e be 4e f7 00 3e
       -0.7323743 -0.022352815 -0.24880324 0.12594339
0002c0 13 f5 aa 3d 5a 62 a8 3e 0b a8 9b 3c f3 cb dd 3d
       0.083475254 0.32887536 0.019001028 0.10829916
0002d0 95 29 bb 3e b5 c4 d0 bd f6 65 32 bf 98 0c 8b 3f
       0.36555162 -0.10193769 -0.6968683 1.0863218
0002e0 35 4c 6d 3e 53 3c 25 40 27 23 aa 3e 4c 5c a6 be
       0.23173602 2.581807 0.33229944 -0.32492292
0002f0 e6 78 b1 bd f8 8d 98 bd ec 05 22 3e 76 97 9c be
       -0.08665638 -0.074489534 0.15822572 -0.30584306
000300 4e 71 e3 3b fa 6b d6 be 62 3c 80 be 6e a4 96 be
       0.006940997 -0.41879255 -0.25046068 -0.29422325
000310 e7 9c a9 be e3 c8 c7 3e aa b2 92 bc ee 1a 86 3d
       -0.3312752 0.39020452 -0.01790746 0.06548105
000320 69 57 77 be e9 a7 2e be 2d 58 73 bc 5d df a9 bc
       -0.24154438 -0.1705624 -0.014852566 -0.02073639
000330 b6 7d f4 bb 2c dd 04 be 91 ef be 3d f4 00 27 be
       -0.007461275 -0.12974995 0.093230374 -0.16308957
000340 59 b3 40 3c 18 00 15 bd 54 88 87 3d ec 28 72 3a
       0.01176151 -0.036377043 0.066177994 0.0009237665
000350 da b2 9e bc 2c ab bf bc 64 fd f2 bc 5d 7e 54 be
       -0.019372392 -0.02339705 -0.029661842 -0.20751329
000360 fb 98 f2 3b a6 b4 94 bf 9b 68 34 c0 24 a2 5b 3d
       0.0074034906 -1.161763 -2.8188846 0.053621426
000370 50 b1 98 40 6e f7 68 3b a1 6e 38 be e5 63 1e c0
       4.7716446 0.003554787 -0.18010952 -2.474847
000380 4b 46 a1 3d 77 2f 24 be 1a 20 d6 3e 31 bb ed 3c
       0.078747354 -0.16033731 0.41821367 0.029019924
000390 63 84 7a 3b 7d c9 ba bc be 02 4d bd 96 cb 4d 3d
       0.0038225881 -0.022801155 -0.050051443 0.050242983
0003a0 4f bf 51 3d 2a 11 c1 bd 7f 27 87 3e 3a f3 17 3c
       0.051207837 -0.09427102 0.2639732 0.009274298
0003b0 2d 1b bb 3d 7a ee ab 3d 53 ec 23 be b1 c8 7f 3e
       0.09136043 0.08395095 -0.1600812 0.24978901
0003c0 1a 83 ce bc fd 0a 64 3c 8b e8 62 3e cb 8f 1d 3d
       -0.025208998 0.013918635 0.2215902 0.03846721
0003d0 41 f1 e6 bd 20 ed d3 bd 53 f8 57 bd bb 81 8b bd
       -0.11276484 -0.103479624 -0.052727055 -0.068118535
0003e0 aa 4a a0 bd 81 0b c9 bd 9d d6 27 3d d1 64 c8 3c
       -0.07826741 -0.09816647 0.040976156 0.024462136
0003f0 25 15 57 3d d9 90 08 3d db 83 d1 bd db 89 00 3e
       0.0525104 0.033341262 -0.102302276 0.12552588

encoder.0.bias f4 [64]
000000 99 a7 d9 bd 7b 7b d0 3d 8a f6 ae be 1e 6f e8 3e
       -0.1062767 0.10179802 -0.3417247 0.45397276
000010 8f 61 6a 3e db b9 27 3f 2e a4 02 bf 1b de 2d bc
       0.22888778 0.6551797 -0.5103177 -0.010612036
000020 d0 c7 4e 3d 83 c1 99 3e f2 29 09 3f d0 16 87 3e
       0.050483525 0.3003045 0.5357963 0.26384592
000030 1c 2d 00 3f e0 fb 4b be f5 58 5e 3e 32 1c 50 bf
       0.5006883 -0.19920301 0.21713622 -0.8129302
000040 4a 42 12 3e ff 25 85 bd 16 c9 d1 3d c3 cf 9a be
       0.142831 -0.06501388 0.10243432 -0.30236635
000050 c9 c1 00 3f 62 50 4e be 7e 1d e1 3d c8 c3 b9 3e
       0.5029569 -0.20147851 0.10991953 0.36282182
000060 2f d6 81 3e ab 77 2d be 2e 8c 82 3e 0f 65 13 3e
       0.25358722 -0.16940181 0.25497574 0.1439402
000070 22 61 94 be 75 69 04 bf 51 0c d9 be cf 53 65 3d
       -0.28980356 -0.51723415 -0.4239221 0.05598813
000080 cf 48 f4 be 46 69 35 3f 89 36 4a 3f 85 e5 90 bc
       -0.477118 0.7086376 0.78989464 -0.017687568
000090 b3 0f 26 bf be 50 d5 3e fe f2 a9 bc de 86 bd 3e
       -0.64867705 0.41663164 -0.02074575 0.37016958
0000a0 23 3e 7b bc 0f 3b ac be c4 62 55 3d aa 10 96 bd
       -0.015334639 -0.33638808 0.052096143 -0.07327397
0000b0 58 83 25 be e4 5c 2d bf c8 c8 ba 3e 4f 9c 11 be
       -0.16163385 -0.67719865 0.3648131 -0.14219783
0000c0 ea 2f a0 3e eb e4 15 be 90 fe 37 bd 83 7d 1e 3e
       0.31286556 -0.14638107 -0.044920504 0.15477566
0000d0 21 56 eb bd a6 7e 80 be a8 3c 1e be 4c c7 27 3e
       -0.11491037 -0.25096625 -0.15452826 0.1638462
0000e0 f3 96 f0 bb 75 b1 82 be 79 69 84 be ed 96 15 be
       -0.0073422133 -0.25526014 -0.2586172 -0.14608355
0000f0 52 82 0e bd 28 c6 94 3e bf 0f 87 bf e7 1b 03 3f
       -0.034792252 0.2905743 -1.055168 0.5121445

encoder.2.weight f4 [52, 64]
000000 b3 b2 f0 bb 0d 70 dd 3d fa 29 da bd aa 6d d9 bd
       -0.0073455214 0.108123876 -0.10652538 -0.1061662
000010 47 b2 9c be f4 8c 9b be 55 49 0f 3f 6c 57 f1 be
       -0.30604765 -0.30380976 0.5597127 -0.4713701
000020 e3 b0 3a bd 71 59 44 bd fe d6 94 3e 4a 46 c1 bd
       -0.04557885 -0.04793686 0.29070276 -0.09437235
000030 aa 5e 10 3e 7e ea 7e bc 22 7e 24 3c 5b fe eb 3d
       0.14098611 -0.015558837 0.010039838 0.11523124
000040 a1 35 2a 3d b4 48 a7 3c 7d 62 c6 bc 21 31 50 3e
       0.04155505 0.02042041 -0.024216885 0.20331241
000050 c8 9f 2e bd f0 f6 a4 3e 53 99 81 3d 5c b9 de bc
       -0.042632848 0.32219648 0.063280724 -0.027187996
000060 9d 03 d0 bd 9f 29 86 be 56 1d 10 bd ed f2 7f be
       -0.10156939 -0.2620363 -0.035184227 -0.24995013
000070 2a d1 a2 3d b8 05 58 3e 38 c0 90 bd 3b a5 9f bb
       0.07950051 0.21095932 -0.07067913 -0.004871992
000080 0d 13 15 bc de a1 37 3f 39 d5 5d 3f 25 8c b1 be
       -0.00909878 0.71731365 0.86653477 -0.34677234
000090 f8 c7 77 be 8b 42 65 3d 1b b3 31 be da 98 e3 3c
       -0.24197376 0.055971663 -0.1735348 0.027782846
0000a0 72 4e 2a 3e c2 87 84 bd 6d 2b 6b be 17 b9 14 be
       0.16631487 -0.06471206 -0.22965784 -0.14523731
0000b0 0c 8a ce 3d 5c 09 3a 3f 81 0d 9a be 5f 6c b6 3a
       0.10084924 0.7267053 -0.30088428 0.0013917795
0000c0 7c 45 23 3e 6d 12 b3 bc 2f 44 3d 3d 60 ad 2b bd
       0.15944475 -0.021859372 0.046207603 -0.04191339
0000d0 91 35 69 3b b7 18 40 3e da f9 b3 bd f2 cc 3f 3e
       0.0035584907 0.18759428 -0.0878789 0.18730524
0000e0 52 ea 7b be 60 f6 e2 3d fd 9b 8a be c9 55 2f 3e
       -0.24601105 0.110821486 -0.27072135 0.17122568
0000f0 80 3d 6d bd 13 c9 61 3d 88 47 50 3e d6 b0 2c bd
       -0.05791998 0.0551234 0.20339787 -0.04216083
000100 6c 31 7c 3c 6d 2c 69 3e 97 8e 24 3e 9a 87 fe bc
       0.0153926425 0.22770853 0.16070019 -0.03107052
000110 cf 3b 26 3e 7a cb 13 3d e5 42 b8 3d ad f0 06 3b
       0.16233753 0.036082722 0.08997134 0.0020590231
000120 4c d4 1a 3c 8b 54 1b bc d2 cd 46 3d 35 65 53 3b
       0.00945003 -0.009480606 0.04853613 0.003225637
000130 3b d1 5c bd f6 11 a0 3d 15 07 d3 b9 9d 16 79 bc
       -0.053910475 0.07815926 -0.00040250333 -0.015203145
000140 cc 34 5c bd b6 e8 0f bc fc 46 fd bb f1 af 40 be
       -0.05376129 -0.00878351 -0.0077294093 -0.18817116
000150 35 f3 89 3c 27 1c 2c 3d 39 02 19 3c 20 5d 8e bc
       0.016839603 0.042019036 0.009338909 -0.01737839
000160 16 41 2f bc 07 82 21 bd 23 2f c7 3c 63 02 4c bd
       -0.01069667 -0.039430644 0.024314469 -0.049806964
000170 15 94 7a 3b 7c 40 8e bc ae 7a 31 bc a5 0e 16 bd
       0.0038235236 -0.017364733 -0.010832472 -0.03663506
000180 e7 ba 73 bf 50 70 8e bd 03 23 15 3f c6 39 03 3d
       -0.95207065 -0.06955016 0.5825655 0.03203752
000190 37 41 98 bc a1 c8 ce bd 8e 8f 16 38 58 82 61 3c
       -0.018585784 -0.10096861 3.5896483e-05 0.0137639865
0001a0 66 19 00 3c 45 47 e6 3c 34 b4 6e be c0 b7 0e 3c
       0.007818555 0.028110156 -0.2331093 0.008710802
0001b0 ea 06 fc 3a 9d 02 ba bd 9c 4e 59 3f ff bd 63 bc
       0.0019228135 -0.0908253 0.84885573 -0.013900279
0001c0 46 03 a4 bb f7 ea c3 3c 85 64 93 bc 72 67 52 bd
       -0.005005273 0.02391575 -0.017992267 -0.051368184
0001d0 42 fe 84 3c 6a f2 08 be 75 0a c9 3a 86 36 7e be
       0.01623452 -0.13373724 0.00153382 -0.24825487
0001e0 fe 1e 88 3b 33 4c d0 3c 29 a8 a9 3b cb 1b cf 3c
       0.004154085 0.02542696 0.005177517 0.025281807
0001f0 dd ae 30 3d f1 62 18 bc 04 e2 8b 3b da 48 3f 3c
       0.043135513 -0.009300933 0.0042688865 0.011675084
000200 12 8b 00 3f 6b 74 c2 be 11 0b 6b 3e 48 5c 0d 3f
       0.50212204 -0.37979445 0.2295344 0.55218935
000210 b6 53 1c bf bd d4 32 be b7 f6 5f 3f b5 45 51 3e
       -0.6106523 -0.17463966 0.8748583 0.20436747
000220 0e 6c af be 79 1b e9 bd ef 15 8e 3f d2 8a ba be
       -0.34262127 -0.11382193 1.1100444 -0.36434036
000230 64 27 23 bd 78 71 10 3f 32 af 50 3e ba 43 24 3f
       -0.039832488 0.5642314 0.20379332 0.6416584
000240 2b 91 cd 3e bd 78 9f 3e 4a a0 29 3f 76 cb 3c bf
       0.40149817 0.31146803 0.66260207 -0.73747957
000250 41 62 73 3e 16 d1 53 3f fa 8d 08 3f a2 2e 88 3d
       0.2376795 0.82740915 0.5334164 0.066495195
000260 af d7 87 be 96 0c c4 3e 5c 26 24 bf d9 65 4f bd
       -0.2653174 0.38290852 -0.6412103 -0.05063424
000270 2c d7 ce be 53 6d b5 bd 1e 3c ad 3e 7a f6 1d bf
       -0.40398538 -0.088587426 0.33834928 -0.6170422
000280 26 77 5e be 66 d3 50 be 68 b7 84 bf ee 0a d7 3e
       -0.21725139 -0.20393142 -1.0368471 0.42000526
000290 c5 6d 91 3d b2 31 86 bf 88 c9 48 3f 3f 97 0b 3f
       0.07101015 -1.0483916 0.7843251 0.5452766
0002a0 fd 36 56 bf 12 3b 74 bf dd 03 2e bf 70 69 00 bf
       -0.83677655 -0.95402634 -0.67974645 -0.50160885
0002b0 d9 0c a5 bd 2a 23 d7 bd bd 09 83 3e be 96 79 3c
       -0.08059091 -0.10504754 0.25593367 0.015233694
0002c0 74 57 0d be ae 92 9e be 1d c3 32 be ca 6d 7f bf
       -0.13802892 -0.30971283 -0.17457242 -0.997769
0002d0 59 56 6f 3e 3f ae 1b be f7 9a 0d 3f 8b 7c 90 bf
       0.23372783 -0.15203188 0.5531458 -1.1288007
0002e0 94 62 b6 3e a1 e6 45 bf 55 a7 ba be 58 8c e1 be
       0.35622084 -0.77305037 -0.3645579 -0.44052386
0002f0 69 ed 03 3f 74 87 80 bc 86 09 31 bf 02 7c 28 3d
       0.51534134 -0.01568959 -0.69155157 0.041133888
000300 aa c3 01 3d 25 2d 22 3e ec b9 35 3f e5 5f 83 3b
       0.03168074 0.15837534 0.7098682 0.0040092343
000310 c2 2c 5c 3e 75 1e 8a 3e 8c ed 18 bf 62 bb ac 3e
       0.21501449 0.26976362 -0.5973747 0.33736712
000320 b2 83 f5 bc 42 f2 c6 bc 9e 2f 09 3d 63 27 04 be
       -0.029970024 -0.02428544 0.033492677 -0.1290565
000330 89 c3 0e 3c f3 ed 57 be d0 0e e1 3c dd d2 d3 bc
       0.008713611 -0.21086864 0.027472883 -0.025857383
000340 8b 8b 12 bc c3 07 7a 3d 11 49 12 3d 80 e9 05 bd
       -0.008944402 0.06104256 0.035714213 -0.032693386
000350 3b 5a 0c 3e 14 8a f0 3a 09 49 02 3d 19 c7 82 3c
       0.13706295 0.0018351697 0.031807933 0.015964078
000360 06 1d d0 3e a4 f9 1a 3e 7b c3 4d 3c ed 55 bc bd
       0.40647143 0.15134293 0.012558813 -0.091960765
000370 dd 24 82 bd ff 26 9f bc 82 be 6f 3c 2b b5 d1 3d
       -0.06354687 -0.019427774 0.014632823 0.10239633
000380 e5 84 f0 bc 2e 5d 4e be fa a5 d2 bc 8c 5e 85 3d
       -0.029360244 -0.20152733 -0.02571391 0.06512174
000390 70 27 f8 bc ec df 8f bd 94 a7 b6 3d 09 59 0e 3b
       -0.030292243 -0.070251316 0.08918682 0.002172055
0003a0 67 07 16 3e 02 8a 1f bc 56 3c ba bc 9b b9 53 3e
       0.14651261 -0.0097374935 -0.022733849 0.20676272
0003b0 e1 64 dd 3c 71 0f aa 3e 32 25 60 be 6f c9 fe bd
       0.027025642 0.33214906 -0.21889189 -0.12440764
0003c0 10 92 25 bf 92 8e 8a 3c be 33 72 bc e3 ff 27 3e
       -0.64676 0.016913686 -0.014782844 0.16406207
0003d0 2f f7 2d be 52 07 6a 3d f7 63 7a bc 5b 73 8e bd
       -0.16988824 0.057135887 -0.015282623 -0.06955596
0003e0 e1 7d b1 3b b4 24 90 be a6 31 92 3e 11 53 0d 3d
       0.0054166173 -0.28153002 0.28553504 0.034503046
0003f0 2c 15 1b 3e 74 65 24 be 19 b9 12 3f 92 0f d4 bc
       0.15144795 -0.16054326 0.57313687 -0.02588633

encoder.2.bias f4 [52]
000000 f1 1c 71 bf 2b 0a 35 3e 3b 98 1b c0 a4 75 c6 be
       -0.94184786 0.1767966 -2.4311664 -0.38761628
000010 fa 45 c4 3e 39 a9 02 be a1 4d 06 be f7 76 2b 3f
       0.38334638 -0.12759866 -0.1311555 0.669784
000020 d0 1f 0d 3d 2c 4b 88 bf 5d e4 44 bf 47 89 75 bf
       0.034454167 -1.0647941 -0.76910955 -0.95912594
000030 29 ab fc be 2f fa 77 3e 88 c4 da be 17 da 7b bc
       -0.49349335 0.24216531 -0.42728066 -0.015371821
000040 a1 0a b9 bf db 3a f4 be f4 a6 27 bf c4 4b 50 be
       -1.4456369 -0.47701153 -0.65489125 -0.20341402
000050 ef ee c3 bd b6 45 2b be 75 07 ff bf 25 31 53 be
       -0.09567057 -0.16725811 -1.9924151 -0.20624216
000060 4c 0c 22 bf 43 6d 01 bf 1d 1d 06 c0 28 88 a0 bd
       -0.63300014 -0.50557345 -2.095527 -0.0783847
000070 5c 5e ed bd c1 2f 46 c0 1e 50 0b be a6 62 8e be
       -0.11590263 -3.0966647 -0.13604781 -0.27809638
000080 a8 27 8a be e5 05 57 bf c1 36 dd bf 49 22 30 bf
       -0.2698338 -0.8399337 -1.7282335 -0.68802315
000090 cb b3 44 3c 86 fb 2f bd c7 bb 52 3f 94 29 6a 3e
       0.012005757 -0.04296448 0.82317775 0.22867423
0000a0 55 51 b0 3d f4 11 85 bf 5e 38 30 be 29 cd 1d be
       0.08609263 -1.0396104 -0.17209002 -0.15410294
0000b0 73 60 da be 50 71 a5 bf d8 ec dd be 95 c1 75 bf
       -0.4265171 -1.2925205 -0.4334476 -0.9599851
0000c0 d9 c0 90 be e8 3b 68 be 42 d1 52 bf e9 08 c3 bd
       -0.2827213 -0.22679102 -0.8235055 -0.09523184

encoder.4.weight f4 [44, 52]
000000 61 af 0e be a8 ee 05 be 34 c7 6b 3f 2e f3 39 bd
       -0.13934089 -0.13079321 0.92100835 -0.04539793
000010 70 ba 75 be 43 18 cf bf 05 5e 0b 3f f7 d0 4c bd
       -0.23996902 -1.6179279 0.5444034 -0.050003972
000020 bf 46 63 bc 4d 77 11 bc 5c a4 df bc 2b 92 a8 3d
       -0.013871848 -0.008878541 -0.027300052 0.08231004
000030 68 59 e3 3c 78 d3 98 be a4 40 f8 3d ce af f9 bd
       0.027752593 -0.29848838 0.12121704 -0.12191735
000040 10 92 d5 3e d4 59 10 3e 8a f6 c6 3e d5 d1 82 bf
       0.41713 0.14096767 0.3885997 -1.0220286
000050 4c 82 1a 3e 3b 3c 5d be 2b e5 69 3d cf 4b 61 3f
       0.15088767 -0.21605007 0.057103317 0.880063
000060 65 5f ab 3e cf b0 3f 3d 72 2d 70 3d 21 32 09 bd
       0.33471218 0.046799477 0.05863709 -0.033495072
000070 41 ad 67 bf 15 df f0 3e 5d 17 61 3f 8b 15 97 bd
       -0.9049874 0.47045198 0.87926275 -0.07377156
000080 8b aa d1 3d 55 7f 74 bc d8 f6 ca be 48 f3 4b 3e
       0.102376066 -0.014922936 -0.39641452 0.19917023
000090 a6 06 19 bf f2 8b ff ba c8 06 f5 bc d2 12 19 3d
       -0.5977577 -0.0019496663 -0.02991046 0.037371464
0000a0 7e 61 95 3c 9c 40 0d 3f a5 fa 98 be d9 ac f9 3d
       0.018234964 0.5517671 -0.29878727 0.12191171
0000b0 06 ba cf 3e 11 66 44 3d cb f3 a0 bc df 50 e9 c0
       0.40571612 0.0479489 -0.0196475 -7.291122
0000c0 cf b4 a7 bf c1 df d2 bd a3 a3 e2 3c 4b e3 07 bf
       -1.3102053 -0.10296584 0.027665919 -0.53081197
0000d0 2e 4d a1 bc 65 30 39 3d f0 b0 25 3f 9b 12 48 3f
       -0.019690122 0.04521217 0.6472311 0.7815339
0000e0 c1 19 cc bd 7d c4 b1 3c 19 3c 96 3c 9b ec 3a 3b
       -0.0996585 0.021700138 0.018339204 0.0028522376
0000f0 10 ff 09 ba 39 51 81 3c 97 b6 b5 3c 79 e2 55 3c
       -0.00052641425 0.0157858 0.022181792 0.013054484
000100 6b 51 3e bd 31 a8 5c 3d 02 85 ee bc 94 64 3c be
       -0.046464365 0.053871337 -0.029116157 -0.18397743
000110 65 5e 6e ba 18 b1 09 bd b4 bb 02 39 dc 5a 2f bb
       -0.00090930454 -0.033616155 0.00012467691 -0.0026757037
000120 6b cb 8e 3d 5b 53 35 bd f5 5c a3 3e ca e0 14 3c
       0.06972393 -0.044268947 0.31906858 0.009086797
000130 f4 64 ce 3c 96 64 e6 3c 3b b4 46 3c 9b e0 d7 bb
       0.025194623 0.028124135 0.012127931 -0.0065880544
000140 16 d6 52 3d d1 e0 fc 3d 09 c7 23 3d 8e 88 2a 3c
       0.0514737 0.12347568 0.039984737 0.010408534
000150 38 6e 2e be cf 1b 7e 3c 5d 9a 15 3d 79 7c 13 3c
       -0.17034233 0.01550956 0.036524165 0.009001845
000160 4e 44 98 3c f3 60 4b c0 81 28 f2 3b f6 9a 48 ba
       0.018587258 -3.1777923 0.0073900823 -0.00076524855
000170 bf 26 5d bb be 01 b7 3b 63 ab ec 3c 58 97 82 bb
       -0.0033745018 0.0055849245 0.028890317 -0.0039853267
000180 f7 69 0c bd 10 44 36 3f 80 25 b0 bc 31 38 52 3b
       -0.034280743 0.71197605 -0.021502256 0.003207695
000190 d3 7a 7f 3a d2 a1 8c 3b 13 90 52 bd d5 aa aa 3c
       0.000974578 0.0042917514 -0.05140693 0.020833412
0001a0 8e e9 4d 3c b2 b7 19 3c 08 e1 02 3f 02 62 d3 bb
       0.012567891 0.009382175 0.5112462 -0.0064508924
0001b0 9a b9 6c 3c e2 21 18 3d d2 92 56 bd 06 77 7f 3b
       0.014448548 0.03714169 -0.052386113 0.0038980856
0001c0 c9 80 c5 be ef 0a cf bc ba 49 0f bc 01 26 35 bc
       -0.38574818 -0.025273768 -0.008745605 -0.011056424
0001d0 e3 35 cd 3c 6d 35 53 bc c7 88 80 bb 10 63 81 3c
       0.02505011 -0.012891156 -0.003922555 0.015794307
0001e0 39 70 87 3f 32 0d b9 3d 49 7d f8 3c 1c 24 a3 3c
       1.0581123 0.0903572 0.030333178 0.01991468
0001f0 37 1d 36 3c a9 71 45 3d 50 d7 a3 3e 0f 11 bc 3c
       0.011115364 0.048204098 0.32000208 0.022957353
000200 60 76 e6 bc cc 93 85 bc 44 0b 19 bd 9d 3b 7e b9
       -0.028132617 -0.016305827 -0.03736426 -0.00024245535
000210 5f 36 78 ba d7 fe be 3e 09 8c 01 be f6 7d 12 3c
       -0.0009468551 0.37303802 -0.12651075 0.008941164
000220 3e 39 3b bd 2a fb ad 3b 7a 82 64 3c d8 67 aa 3c
       -0.045708887 0.005309482 0.013947124 0.02080147
000230 b4 4e 45 3b d6 b0 c6 bb 9a 15 cc 3b 98 59 bd bc
       0.0030106725 -0.006063561 0.006228161 -0.02311401
000240 25 db 15 3c c5 37 15 bf 6a da 2d 3e 05 b5 93 bc
       0.009146486 -0.5828822 0.1697785 -0.018030653
000250 6c b0 8c 3b c0 2c 2f bc 07 56 df bf 3b 12 4e 3c
       0.004293492 -0.010691822 -1.7448128 0.012577589
000260 d3 6e aa 3c 96 db dc 3b 45 d1 9c 3c 9f 98 51 3c
       0.020804798 0.006740044 0.019142756 0.012792735
000270 9a ee bf 3e 1f 41 ac bd fa e8 23 40 f7 5a 3d 3e
       0.37486726 -0.08410858 2.5610948 0.18491732
000280 05 bd 2b bf 9f c5 10 3d a7 5c 0b be a7 8d ef bd
       -0.67085296 0.035344716 -0.13609563 -0.1169694
000290 49 29 86 bd 45 d1 15 bd d4 c9 de bc a0 96 cd 3c
       -0.06550843 -0.036576528 -0.027195849 0.025096238
0002a0 9a 08 aa 3e a1 12 3d be 8e 09 62 3d 86 76 d9 c0
       0.33209687 -0.18464138 0.055184893 -6.795718
0002b0 27 80 81 bd da 5f f0 3d 5a 13 8e 3a 74 04 86 3c
       -0.06323271 0.11737032 0.0010839507 0.016359545
0002c0 a4 6c 40 3d 13 d6 bd be 83 01 d7 3f d9 e6 dc bd
       0.046978608 -0.37077388 1.6797336 -0.10786218
0002d0 ec 59 57 be 85 52 d6 3c ab ae 80 be 42 08 e8 bb
       -0.21030396 0.026162395 -0.2513326 -0.0070810625
0002e0 c2 27 8c 3d 84 8e ed bd c5 64 31 3e 5d b7 e2 be
       0.06843521 -0.11599448 0.17323597 -0.4428052
0002f0 fd 17 77 3f 7e 6b 99 3b f3 58 41 bc fb bc a2 3b
       0.9652098 0.0046820035 -0.011800992 0.004966376
000300 7e 70 05 bd 4d 80 f2 3d 16 82 18 bd ba e5 73 3c
       -0.032577984 0.11840878 -0.037233435 0.014886314
000310 74 18 fc bb 84 ce 6a bd cb 49 94 3c c0 c8 19 bd
       -0.0076933447 -0.057325855 0.018101593 -0.037544966
000320 6a 92 9a 3b 92 dc 89 be 9f 28 f5 bb ec 89 41 3c
       0.004717161 -0.26926094 -0.007481649 0.011812668
000330 90 3f 30 3c f8 ca 7d 3d e6 2b 5a bc a5 34 b4 bc
       0.010757342 0.061961144 -0.01331613 -0.02199776
000340 41 e0 56 3f f8 c9 03 3e 24 0d 16 40 4e 15 04 bf
       0.83935934 0.12870014 2.344552 -0.5159501
000350 1e 59 b0 be 6a 93 0c 3c 96 8a 6a 3e 77 ed 98 3e
       -0.3444299 0.008580068 0.22904429 0.2986867
000360 38 de 6b 3f 4d c5 aa bf 8c 8b e1 bd 6b 11 02 3f
       0.92135954 -1.3341461 -0.110129446 0.5080783
000370 c4 f6 20 3e 26 19 8e bf dd 38 8e bd 4a 44 2e bd
       0.15719134 -1.1101425 -0.069444396 -0.042545594
000380 08 c4 68 3f 60 91 f4 3e 61 57 9a 3e 1d 66 ac 3e
       0.9092412 0.47767162 0.3014479 0.33671656
000390 3c f9 ff be e1 f9 7f 3f 8b 44 cd 3f 32 8c e2 3e
       -0.49994838 0.9999066 1.6036543 0.44247586
0003a0 27 51 1c 3f c5 fe 1f 3e 85 9f 87 3e 5e 2f 0b bf
       0.6106133 0.1562453 0.2648889 -0.5436915
0003b0 e9 34 e1 be 90 71 c5 3f a6 d9 10 bf 86 77 e1 be
       -0.4398568 1.5425282 -0.56582105 -0.44036502
0003c0 af 21 95 3e 91 7a 8f bc 9a 39 79 3e fd 0b 20 3f
       0.2912726 -0.017514499 0.2433838 0.6251829
0003d0 72 83 b5 3e e4 62 89 3e 1d 5c e9 3b e9 13 97 3e
       0.35451847 0.2683326 0.0071215765 0.29507378
0003e0 b0 b3 94 bf 65 90 43 3f 33 83 0d 3e 55 5d 50 3d
       -1.1617336 0.76392204 0.1381958 0.05087026
0003f0 81 33 36 3f f6 ca d4 3e 35 58 05 3e 8a 97 bd be
       0.7117234 0.41561097 0.1302193 -0.37029678

encoder.4.bias f4 [44]
000000 dc 44 77 bf e0 67 43 bf 92 ff 2e bf 50 b1 27 c0
       -0.96589446 -0.76330376 -0.6835872 -2.6201973
000010 57 03 0d c0 60 df f5 be f8 a5 db 3d 8d 61 a6 bf
       -2.2033288 -0.48021984 0.107250154 -1.299852
000020 b6 07 b7 bf 6e c3 15 bf 68 4c e3 be 28 3c 3c bf
       -1.4299228 -0.5850133 -0.4439423 -0.7352929
000030 46 8e be be 6d 23 cd bf 4e da 6c be 2a 3f 46 bf
       -0.3721792 -1.6026436 -0.23130152 -0.7744013
000040 6b 01 0c c0 7c 4e c5 3e c1 52 4a bc 0c 72 3b bf
       -2.1875865 0.3853644 -0.012348832 -0.73220897
000050 96 ab 66 be 78 cd 1d 3e 8b 32 27 3f e7 e1 87 bf
       -0.22526392 0.15410411 0.653115 -1.0615815
000060 3c ad a2 bf a6 b9 2f be 63 b0 51 bf f3 d1 50 bf
       -1.2709117 -0.17160663 -0.8190977 -0.8157036
000070 db c8 5b bf f5 7d c8 bd bf 10 14 bf a2 a9 f9 be
       -0.85853356 -0.097896494 -0.5783805 -0.48762232
000080 27 1e ea be 60 03 12 bf 96 99 97 be b8 c1 96 be
       -0.4572613 -0.570364 -0.29609364 -0.2944467
000090 27 0c eb bf b2 34 8a bf e3 6b d7 be f1 4b 33 3d
       -1.8363084 -1.0797331 -0.420745 0.043773595
0000a0 73 ac 99 bf b9 7b 7a be 76 86 5e 3d 34 8e ce be
       -1.2005752 -0.24461259 0.05432745 -0.40342867

encoder.6.weight f4 [32, 44]
000000 50 e2 1f bd e4 f9 43 bc 65 1c af bb ce 51 c4 bc
       -0.039034188 -0.011961434 -0.005343961 -0.023964789
000010 63 3d 11 be 3f 16 15 3d 4b dd 78 bc 2b a1 02 bd
       -0.14183573 0.03639817 -0.015189479 -0.031891983
000020 72 40 1a be 27 d4 2c 3c a5 e0 d5 bc aa 27 3a 3f
       -0.15063646 0.010548628 -0.026108095 0.7271677
000030 dd 6a 19 ba 11 15 44 be cf 18 ae 3e 27 bd e1 bc
       -0.00058524107 -0.19148661 0.34003302 -0.027556015
000040 b8 75 1c be cd 4d d0 3a ff 00 42 3c 0f d3 c0 bb
       -0.15279281 0.0015892327 0.011841058 -0.005884535
000050 cc fc 6a bd 0c 65 2a 3d 1f d7 a3 3e f7 37 05 bc
       -0.057369992 0.041600272 0.32000062 -0.008131019
000060 02 a4 6d bc 5d 26 16 bd 68 3d af 3b 94 7a 1b 3d
       -0.014504435 -0.03665768 0.0053478964 0.037958696
000070 1a ba a9 3b 31 23 03 bf 2a fd 27 3b f3 07 6f 3d
       0.0051796557 -0.5122557 0.0025633075 0.05835719
000080 cb b3 64 bc e0 b8 06 bd df a8 81 3c 07 8e 85 be
       -0.013958882 -0.032891154 0.015827594 -0.2608492
000090 47 8c 9f 3b 69 02 83 3d 14 3e 8c bc 32 2d 29 bd
       0.0048690173 0.06396944 -0.017119445 -0.041302867
0000a0 aa 6a 4a 3d d3 36 03 3c 83 ca cf bc 4e 1c ff bb
       0.04941813 0.008008677 -0.02536512 -0.0077853566
0000b0 bc 9a 14 bc 40 f6 51 bd a7 95 a5 bc e8 f8 85 bd
       -0.009070095 -0.051260233 -0.020212961 -0.06541616
0000c0 33 c3 a8 3f 32 70 be 3c f7 cc a2 3c 7e 08 1e 3d
       1.318457 0.023246858 0.019873125 0.038582318
0000d0 a6 04 95 3f b3 4c 6f bc da 0f 08 bc 45 5d 06 3d
       1.1642044 -0.014605689 -0.008304561 0.032803793
0000e0 e5 cb b3 3f ec 11 0a 3f ac 50 b2 3d 7d 49 8c bd
       1.4046599 0.53933597 0.08706793 -0.06849954
0000f0 35 f5 8d 3f ab 86 65 3d 40 b8 5d bd 28 07 38 bd
       1.1090456 0.056036633 -0.054130793 -0.0449287
000100 ae d3 e0 bb b8 2c ae 3c 81 1b a7 3c b6 cb b3 bc
       -0.0068611717 0.021261558 0.020398857 -0.021947723
000110 c5 6a 2b 3d f2 0e 4e 3c e8 3d 25 3c 02 b0 c2 bd
       0.04184987 0.012576805 0.01008556 -0.09506227
000120 40 86 0f 3d 6b e9 77 bd c0 f2 9c bc 37 fb 09 bd
       0.03504014 -0.06052534 -0.019158721 -0.033686843
000130 3d 0b a1 bd 60 35 d2 bc 51 a7 dd bc 72 dc 5f bd
       -0.07863472 -0.025660217 -0.027057322 -0.054653592
000140 1d 6c 5e 3e cd 30 ed 3b 2d 95 2b 3c 9a 3e 0b 3c
       0.2172093 0.0072384835 0.010472578 0.008498812
000150 57 9a 4d 3f da 14 91 bd 38 bd 3d 3c 06 35 80 bc
       0.8031363 -0.07084055 0.011580758 -0.015650284
000160 fe e4 92 3c c2 5b a5 bc e6 89 a5 bc 2d e6 95 3c
       0.017931458 -0.020185355 -0.020207357 0.018298233
000170 f7 e3 7a 3e 9c 9a bd 3e 54 55 32 bc 50 b3 18 3c
       0.24501024 0.3703202 -0.010884602 0.009320095
000180 9b 3e 8e bf aa 3a 04 3a 4d 7d b5 bc ec 61 62 3e
       -1.1112856 0.0005044142 -0.022154475 0.22107667
000190 2e 23 b8 b9 10 52 c8 3e ea e3 2b be 1b 88 9b bb
       -0.00035121426 0.3912511 -0.16786161 -0.0047464496
0001a0 26 7d 4b 3f 5a 2f b7 3b a0 05 37 bc 76 98 d0 3b
       0.79487836 0.0055903615 -0.011170775 0.006365831
0001b0 de d8 19 bd e7 05 60 3c 7b 40 43 3f 5a d2 76 3c
       -0.037560336 0.013673282 0.76270264 0.0150648
0001c0 a8 29 bf bb 6b 63 a4 bc 51 40 82 bc b6 3c 33 bd
       -0.0058338232 -0.020066937 -0.01589981 -0.04375907
0001d0 d5 16 9e bb cc 8c f8 3d 42 48 91 3b 62 13 e9 3c
       -0.004824499 0.1213623 0.0044336626 0.028451625
0001e0 f2 d6 ac bb 9d 95 48 bd 12 d0 1f 3c 86 7d ab 3d
       -0.005274647 -0.048970807 0.009754198 0.08373551
0001f0 a7 18 52 3c 8a 1b e2 be ab a3 cd 3d 1b ad 59 bc
       0.01282326 -0.44161636 0.10040983 -0.0132859005
000200 f7 cb df 3c f9 ab 67 3c b4 99 aa b9 3f 91 27 bb
       0.027318938 0.014140123 -0.00032539445 -0.002556875
000210 6b 7d 18 3b 80 84 02 3d 3d 32 2e 3c 97 7c 5c 3f
       0.0023268114 0.031864643 0.010632095 0.8612761
000220 b4 fd b7 bd 18 cb f6 bb 66 ac 32 bc a5 16 ba bc
       -0.08983937 -0.007531535 -0.010905361 -0.022715876
000230 3f 3c 42 3f 68 0d c3 bb 94 f6 c9 bc 68 f0 74 bc
       0.7587318 -0.005952526 -0.02465371 -0.014949895
000240 61 4e b4 3b b8 39 c0 bd f0 d0 e1 3a d3 7d d4 bc
       0.0055025076 -0.09386009 0.0017228406 -0.025938904
000250 a4 9a e1 3e ec f6 2e 3c 22 95 96 3c 94 72 d3 bd
       0.44063294 0.010678988 0.018381659 -0.103245884
000260 29 cd 22 3c 13 e0 03 3d 45 5f 19 3b 87 de 89 bd
       0.009936609 0.032196116 0.0023402732 -0.06731897
000270 24 53 69 bc 70 40 e3 3c b5 6d a4 3b 69 0c 4f bc
       -0.014241014 0.027740687 0.005017961 -0.012637236
000280 fa a1 d4 bc 1b e7 49 3b a4 d8 8c 3b 8b 76 f5 3b
       -0.025956143 0.0030807916 0.0042982865 0.007490938
000290 16 92 16 3f d5 be 12 bc ae cd 13 3b 54 31 2e 3c
       0.5881666 -0.008956631 0.0022553015 0.010631878
0002a0 83 af ac bd b1 c7 12 3a 65 bb ca ba c2 64 76 3c
       -0.08431914 0.00055992143 -0.0015467225 0.015038671
0002b0 3a 23 25 3c 99 e0 41 bd 26 ed 1e bd 4f a8 59 c0
       0.010079199 -0.047333334 -0.03880038 -3.4008977
0002c0 fc c5 5e bc 87 d6 e8 bb 1e c9 cb 3f 9a 73 ea 3d
       -0.013597008 -0.007105652 1.5920751 0.114478305
0002d0 61 f3 af 3e e3 7d 4d 3d 25 b3 ee 3b c9 fe 8b 3d
       0.3436537 0.050168883 0.0072845393 0.06835706
0002e0 ba b9 04 3f f4 20 29 39 a6 cd d9 bd cd 5c 53 3d
       0.51845896 0.00016129372 -0.106349275 0.051602174
0002f0 6d b0 c4 3b 07 60 af 3e 13 c9 30 3d 0b 23 13 c0
       0.006002477 0.3425295 0.04316051 -2.2990139
000300 ee 33 06 3f 6d 60 d9 ba 6f 42 f9 3c f2 23 8a 3c
       0.5242299 -0.0016584523 0.030427186 0.016862843
000310 b5 5d 09 bd e6 79 8b b9 19 01 c6 bd 7f 8b 46 3e
       -0.03353663 -0.00026602967 -0.09668178 0.19389151
000320 c9 5c 98 bc 62 8b e4 3b 7e dd 5a bd 20 77 f4 ba
       -0.01859893 0.0069746235 -0.053433888 -0.0018651225
000330 0c cc 18 bd 5c 49 66 bd c9 fb fd 39 b2 1f a2 3e
       -0.03730397 -0.056222305 0.00048443515 0.31664807
000340 58 7a 07 bc 3c 2a 39 bd 5c 5a af bc e8 86 27 bd
       -0.008268915 -0.045206293 -0.021405391 -0.04090014
000350 f5 b6 90 3e 8c 85 ac 3c 53 dc 14 3b 4d e0 a0 bc
       0.28264585 0.021059774 0.0022714331 -0.019638205
000360 7e 87 5e 3e 1c 1f 48 3d aa 9a 2f bd d4 72 69 3c
       0.21731374 0.048857793 -0.04287211 0.014248569
000370 ae 1f e0 3a 83 98 08 bb f6 e9 78 bb 53 60 2e bb
       0.0017099285 -0.0020842857 -0.0037981248 -0.0026607707
000380 0a 82 2f 3d 81 c8 99 bc c0 74 63 3b 2d de 5f 3f
       0.042848624 -0.018772366 0.003470704 0.8744839
000390 b7 ad 31 be d0 59 86 3b 3d c4 60 bb 28 40 34 3c
       -0.17351423 0.004100062 -0.0034296655 0.011001624
0003a0 cc ba 47 3b 13 2a 4b 3d 71 ff 74 bc 38 ff 94 3b
       0.003047633 0.049600672 -0.01495348 0.004547026
0003b0 b4 10 df bd 55 45 6e 3c 58 e2 b1 3c e5 a5 a1 bb
       -0.10891858 0.014542897 0.021714374 -0.0049331062
0003c0 5b 84 99 bf 3c 8e a9 3b 1c e0 94 3c 03 4c 97 3c
       -1.1993517 0.0051744264 0.01817327 0.018468862
0003d0 b9 c1 d5 b8 4b 70 a8 3d 59 74 85 bc 7c 76 fa 3b
       -0.00010192715 0.08224543 -0.01629083 0.007643519
0003e0 d8 5e 19 bc 81 a7 68 3c 39 fd b0 3b d6 73 88 3c
       -0.009360991 0.014200092 0.0054012802 0.016656797
0003f0 0a 56 03 3c f7 84 5b 3c f8 96 1b 3b e4 a6 b4 3b
       0.008016119 0.0133984005 0.0023741107 0.005513059

encoder.6.bias f4 [32]
000000 d3 c2 8e bc 5f ab 01 c0 54 00 87 bf ed 6f 91 bf
       -0.017426884 -2.0260847 -1.0546975 -1.1362282
000010 b7 5c 46 bf 7d 09 ad 3b 82 d6 03 bf cd 2e f0 bd
       -0.7748522 0.005280672 -0.5149919 -0.117276765
000020 04 ea 2d be 5b b5 c2 bd cc 52 dd be 06 1a 1c bf
       -0.16983801 -0.09507247 -0.43227232 -0.6097721
000030 ee 96 5e bf 7c 13 9f bf f5 ac 05 bf 23 e7 25 be
       -0.8694905 -1.2427821 -0.52217036 -0.16201453
000040 b7 42 89 be 40 1e 8f be 12 15 00 bf ba c0 9a bf
       -0.26808712 -0.27952766 -0.5003215 -1.2090065
000050 0e 70 1d bf 5c 3c 89 be 46 8e c7 bc b3 35 1e bf
       -0.61499107 -0.26803863 -0.024359833 -0.6180069
000060 0a b7 bd be 42 b9 1e bf 16 2d 23 bf 72 c9 9d 3d
       -0.3705371 -0.6200143 -0.6374067 0.07704438
000070 74 0b e2 be f5 74 8f bf 1c 51 3f bf fd e2 b6 bd
       -0.44149363 -1.1207567 -0.7473314 -0.08930013

encoder.8.weight f4 [24, 32]
000000 08 1d ae bc b5 3a b8 3b 9a b3 0c 3b 3d 0e 8e 3a
       -0.021254078 0.005622233 0.0021469356 0.0010837984
000010 4b d3 8d 3b e4 2a 3d bc 9e 39 8e 3b af f6 25 3c
       0.0043281666 -0.01154587 0.0043403646 0.010129615
000020 80 d7 b0 bc ee 72 88 bb 07 21 ea 3c 15 04 91 3b
       -0.021587133 -0.0041640913 0.028580202 0.0044255354
000030 88 75 4d bc 36 40 3d 3c 08 fe 9a 3c c1 50 1a 3c
       -0.012540229 0.011550954 0.01891996 0.009418667
000040 b4 38 04 bc a2 94 cd ba 2c d9 6a bc 4c ae 8f 3c
       -0.00807016 -0.0015684555 -0.014334004 0.017539166
000050 e5 68 5b bc a2 e4 bc 3b 87 df 26 bc d6 ec 4e 3b
       -0.013391708 0.00576456 -0.010185129 0.003157427
000060 97 c2 ab bc 67 dd 71 3c 0c 77 2a 3f 77 1e 96 3b
       -0.020966811 0.014762259 0.665879 0.0045812684
000070 63 90 9b bf d7 df e4 3b 84 e1 d6 bb 2a b6 5f 3c
       -1.2153438 0.0069846916 -0.0065576453 0.013654271
000080 88 3b fb 3e 43 a4 21 3b b5 36 8f 3d bf e8 0a bb
       0.49068856 0.0024664558 0.069928564 -0.0021195856
000090 89 1a 0c 3a 7d 55 35 bc b4 20 c0 3b ee 6d 61 3e
       0.000534453 -0.011067745 0.0058632735 0.22014591
0000a0 f7 7f 1b b9 bd f2 7a 3c 1b b9 83 3c d2 e6 2a bc
       -0.00014829623 0.015316662 0.016079476 -0.010431008
0000b0 dd a4 25 bb 5e 51 88 3e c1 a2 eb 3b 1a 06 42 bb
       -0.0025275268 0.26624578 0.0071910326 -0.0029605688
0000c0 90 72 09 3c a3 79 1f bc b6 9a 58 bb 64 fb 4f 3c
       0.00838913 -0.00973359 -0.00330512 0.012694214
0000d0 87 35 94 bb 92 bd ab b9 d8 cc bb 3b fb 18 24 3c
       -0.0045229825 -0.00032756903 0.0057312064 0.010015721
0000e0 5a 65 c4 bc 4f 6a da bc 06 d0 83 39 9f bf 11 bf
       -0.02397411 -0.02666202 0.00025141257 -0.56933016
0000f0 68 a8 23 ba 7e ea 4b bc ca 53 0e bb 08 22 e2 3c
       -0.0006243051 -0.012446044 -0.0021717423 0.027604118
000100 ca 2c 18 3c db 8c 20 3c 00 2c 55 ba 76 d6 c7 3b
       0.009288022 0.009799208 -0.00081318617 0.006098564
000110 ee 7b d3 3b 4d 82 05 3f 29 87 57 bc e7 14 f0 3a
       0.0064539826 0.5215195 -0.013154783 0.0018316776
000120 fb 88 32 3c 81 21 3a 3c d1 67 9d 3c d9 77 10 bf
       0.0108969165 0.011360527 0.019214543 -0.56432873
000130 86 da 6e 3b 27 fd 0d bc 35 a2 9b 3b 1d a6 95 3c
       0.0036446168 -0.008666313 0.004749561 0.018267686
000140 37 bc 01 bc 70 63 6e 3c 95 26 5c bb c1 84 23 bc
       -0.007918409 0.014550075 -0.0033592333 -0.0099803815
000150 ae ea 97 ba 6c 66 b1 3b 8e e6 03 bc 87 17 a7 3b
       -0.0011590326 0.005413821 -0.008050574 0.00509924
000160 40 74 f5 bc 75 66 fd ba 41 53 ec 3a 30 48 c8 bb
       -0.029962659 -0.0019332903 0.0018030183 -0.006112121
000170 f8 a0 bf ba eb 4c 91 3b 98 4f e7 ba c8 6c 37 bb
       -0.0014620116 0.004434218 -0.0017647622 -0.0027988423
000180 bd 44 86 3c d4 8f 91 3c bd e5 9f 3c 99 da 13 3c
       0.016390199 0.017768778 0.019518727 0.009024286
000190 03 3a 35 3c fb 69 cc bb 7d 95 84 bc ba 35 a7 bc
       0.011061194 -0.00623822 -0.016184563 -0.020411361
0001a0 c5 68 95 bc 49 be 11 3b 2c a8 e4 3c ed b3 c9 3c
       -0.018238435 0.0022238663 0.027912222 0.024621928
0001b0 90 12 19 bd a3 0e be bb c5 08 20 bb 3c 8e 09 3d
       -0.03737122 -0.0058000847 -0.002441929 0.03358291
0001c0 35 f8 ce bf 25 dd 87 bc 73 e0 14 bc af c7 ae bb
       -1.6169497 -0.016584942 -0.009086716 -0.0053338627
0001d0 42 59 2e bc e0 af 58 3f 12 fa f8 bc 74 f7 08 3d
       -0.010641398 0.84643364 -0.03039268 0.033439115
0001e0 71 18 9e bd 03 ea 19 3d 69 cc ff 3c d5 16 8e 3a
       -0.077195056 0.037576687 0.0312254 0.0010840545
0001f0 68 b7 55 bc 41 ae 17 3d f0 76 99 bc 73 69 2a 3d
       -0.013044216 0.037031416 -0.018733472 0.04160447
000200 6e e4 89 3c 33 92 b9 3c 79 ae f5 3c e0 20 03 bc
       0.016832557 0.022652721 0.029990422 -0.0080034435
000210 36 87 5a 3a 6e af c5 3b 1d de d5 bc 81 a1 a7 bc
       0.0008336188 0.0060328757 -0.026106888 -0.020462753
000220 bd ff 81 38 36 b3 01 bc d5 be 05 3d 77 9b fe 3a
       6.198834e-05 -0.007916262 0.032652695 0.0019424994
000230 e0 31 06 bd af 18 06 ba 2c 90 1d bb b2 5b 46 3c
       -0.03276241 -0.00051153725 -0.0024042232 0.012106823
000240 5b 9d 1f 3f 97 cc 01 3b 4d a1 06 bc 83 9c 1d bc
       0.6234948 0.0019805783 -0.008217168 -0.009619835
000250 bc 0e c4 3b 49 ae ff 3d 12 99 9f 3b 7c af 6a 3c
       0.005983202 0.12484414 0.0048705423 0.014324065
000260 ee 26 23 3c 51 01 e7 3c c0 c5 2b 3c f0 6a 4e 3c
       0.009958012 0.02819887 0.010484159 0.012598738
000270 94 d6 d8 bb 89 03 99 3a bd 43 43 bb 57 0a 67 bd
       -0.0066173766 0.0011674027 -0.0029795014 -0.056406345
000280 58 8f 5b 3f 52 0e 21 bb 63 7d 5a bf 0b 38 17 3c
       0.857656 -0.0024575186 -0.85347575 0.00922967
000290 64 c4 15 bc 5f e4 65 3b 67 59 64 3b 35 5f 7b bf
       -0.009141061 0.0035078747 0.0034843327 -0.9819215
0002a0 81 0a 75 bb 44 2c 22 bc 19 2a a7 3c fa dd 23 bc
       -0.0037390294 -0.009898249 0.020405816 -0.010001654
0002b0 43 91 c0 b9 e1 59 2f 3c 5c 2c 5a 3c 12 14 5b bc
       -0.00036729322 0.010702581 0.01331624 -0.013371484
0002c0 bd 89 36 3c 79 4d 40 bb 7a e4 f8 ba b8 15 de 3c
       0.011141238 -0.0029343052 -0.001898899 0.027109966
0002d0 f5 d2 1f 3b c6 41 cc bb eb b4 73 3b 99 e5 9c 3a
       0.0024387215 -0.0062334267 0.0037186693 0.0011970281
0002e0 c0 8c 6f bb bc 64 36 bd 42 83 96 bb cc bd a8 bd
       -0.00365524 -0.04452966 -0.004593284 -0.08239326
0002f0 ec 4c 70 bb e5 90 a4 bb 6a 1c a6 bb 4c f9 8b 3c
       -0.0036666943 -0.0050221556 -0.005069305 0.017086647
000300 3f bf c7 bd 40 13 ee 38 4a e9 21 be 33 77 46 bd
       -0.09753274 0.0001135231 -0.15811649 -0.04845352
000310 ed c0 3b 3c b0 dd c2 bc be 84 68 3e f2 19 8f 3d
       0.011459571 -0.02378735 0.22706887 0.069873706
000320 d6 6c df 3c 05 ae 18 3d 8d 7e 0e 3c a7 f8 23 bc
       0.027273577 0.037275333 0.008697164 -0.010008014
000330 c9 7c db 3d c9 5c 84 3c 7a 04 4b be a1 11 0e be
       0.1071716 0.016157525 -0.19825926 -0.13873912
000340 88 2c ff 3a 29 b1 ad bd 8c 5c f7 3c f5 c6 5a bd
       0.0019468227 -0.08481056 0.030195497 -0.053412396
000350 5e cf a0 bc a4 10 0c 3d e4 fc 63 3b d2 b3 b5 3d
       -0.01963013 0.034195557 0.0034788186 0.08872189
000360 93 5c c9 bc 92 d9 5c ba d0 01 1d 3d 36 09 51 3d
       -0.024580276 -0.00084247545 0.038331807 0.051034175
000370 df ca c7 bb 33 b3 88 bc 50 4b 5e 3c c0 d7 10 3d
       -0.006097182 -0.016687011 0.013567761 0.035362005
000380 49 ba df 3b f6 ce a8 3c 67 0c 50 3b e8 e5 d1 bc
       0.006827627 0.0206065 0.0031745674 -0.025622323
000390 27 ff b9 bf dd 9d bf bc 3e 88 64 3c 0f ab 00 bc
       -1.4530991 -0.023390705 0.013948498 -0.007853284
0003a0 f6 3c 40 bc ed cc 6c 3c d1 75 c8 bb ed fa 99 bb
       -0.011733284 0.014453155 -0.0061175604 -0.004699102
0003b0 bc 18 35 bb db 0f 18 3a 5a 89 6b 3b b0 17 91 3c
       -0.002763315 0.00058007025 0.0035940022 0.01771149
0003c0 cc c8 6f bc 3e 5b a1 bb 4f 6a 68 3f 70 bb 38 ba
       -0.014635276 -0.004924207 0.90787214 -0.00070469733
0003d0 bd bb 93 bc 5b 8c 04 3c a7 14 84 bc 2c 7a ff bb
       -0.018033857 0.008090104 -0.016123129 -0.0077965464
0003e0 77 f2 49 bd ac d6 a1 3c e1 5f 79 3c 33 4a 16 bc
       -0.049303498 0.019755684 0.015220613 -0.009172964
0003f0 a8 64 3d 3c 78 ec 04 3b 56 18 9b bb b5 14 dc 3c
       0.011559643 0.0020282548 -0.0047331257 0.026865343

encoder.8.bias f4 [24]
000000 17 f1 2a bf 53 85 b4 be 58 ce 81 be 4b c8 2e bf
       -0.66774124 -0.35257968 -0.2535274 -0.6827437
000010 ad da 0e bf 3f 7a 1b bf a5 a0 f7 be 14 bf 52 bf
       -0.5580242 -0.6073341 -0.4836475 -0.8232281
000020 2b 8d 38 bd 5d d2 2d be ad 93 55 bf 23 3e 3b bf
       -0.045056503 -0.16974778 -0.8342846 -0.7314169
000030 1a 73 75 bf 1f 6c 8c be 48 97 5c 3e 80 4d 3b be
       -0.95878756 -0.2742624 0.21542084 -0.18291283
000040 53 1c 50 bf 4e f2 11 bf ed fb a2 bf 0d c3 f6 bc
       -0.8129322 -0.5701035 -1.2733132 -0.030122304
000050 4b 3d 04 be cd 76 7f be 59 84 18 bf f0 02 81 be
       -0.12914006 -0.24947663 -0.59576946 -0.25197554

encoder.10.weight f4 [16, 24]
000000 f6 a5 3a 3b 28 36 1a 3c b9 4f f1 3a f4 f3 eb bb
       0.0028480268 0.009412326 0.00184106 -0.0072007123
000010 d1 aa dd bb 13 6a 0e bc e5 ce 0e 3c ea f5 93 b9
       -0.0067647477 -0.008692282 0.00871632 -0.00028221245
000020 c0 c4 73 bc 3c c5 72 3b e2 a8 15 3f 64 5b 96 3b
       -0.014878452 0.003704383 0.5846082 0.0045885313
000030 d0 fe 50 3a d6 3c 6b bb b6 cd e7 3b 39 b5 05 bf
       0.00079725403 -0.0035894415 0.007074083 -0.5222965
000040 40 e6 4d b7 c7 e9 9a bc 03 3b 26 3c 49 77 57 bb
       -1.2272561e-05 -0.018910302 0.010145905 -0.0032877496
000050 c1 de a1 bb 0b 53 48 bc 90 44 0f bd fd 52 e1 bb
       -0.0049398844 -0.01222683 -0.034977496 -0.006876348
000060 88 62 13 ba 90 a6 95 bb d4 6b 47 3f 89 f2 5e bb
       -0.0005622287 -0.004566975 0.7789891 -0.0034019074
000070 66 28 26 3c 07 ea a5 b9 56 8a 13 3c f4 13 8b 3b
       0.010141468 -0.00031645616 0.00900515 0.004244322
000080 ce be 4c bc eb 37 ac bb d6 58 b3 3b 60 55 56 b5
       -0.012496663 -0.0052556894 0.0054732366 -7.984545e-07
000090 04 b3 0f bc 51 ca 1c bc 65 73 05 3c 5c a3 15 3b
       -0.008770708 -0.00956972 0.008145188 0.0022832965
0000a0 08 01 88 bb a6 8e 84 bc 1d e4 91 3b 54 5a 2e bb
       -0.0041505136 -0.016181301 0.004452242 -0.0026604133
0000b0 7f 53 7d bd 3e 6e 26 bb 61 92 76 bc 4a b5 c7 bc
       -0.061847206 -0.00253953 -0.015049548 -0.024378438
0000c0 68 63 f1 ba 0f 0f 8d ba 32 52 8e bc 02 fe c3 bb
       -0.0018416466 -0.0010761934 -0.017373178 -0.005981208
0000d0 84 ed 9e 3b b3 3c f3 3a 08 a8 62 3c 02 8f b5 38
       0.0048500914 0.0018557518 0.013834007 8.65739e-05
0000e0 2c 8f c2 bc 52 5d 8a 3b d5 0f 92 3a d9 50 0f 3c
       -0.02374991 0.0042225504 0.0011143634 0.008747303
0000f0 1f 91 b0 ba 39 a9 2b 3f f0 33 2d 3b e8 2e c0 3b
       -0.0013470984 0.6705509 0.0026428662 0.0058649667
000100 3d 9c df be c2 9b 5e bc 07 a2 a1 3a b8 eb 3d bc
       -0.43673888 -0.01358694 0.0012331613 -0.011591844
000110 98 e2 aa bc ae a6 10 bd b0 45 04 3c b9 28 cd bb
       -0.020860001 -0.035315208 0.008073255 -0.006260958
000120 05 1f ad bc 59 d5 8d ba 06 a9 67 bb fe 10 d1 3e
       -0.021132955 -0.0010821029 -0.0035348549 0.40833277
000130 09 71 f2 be 1c e4 11 3a 0d f7 bb 3a 29 c5 fd 38
       -0.47351864 0.0005565302 0.0014340595 0.00012100704
000140 a8 e9 df bc 76 ed bd bb 7a f2 e9 3a 18 ad b7 bb
       -0.027333096 -0.00579613 0.0017848753 -0.005605351
000150 48 3f ab bb 5a be ae bb 39 3e 15 bc 24 d5 1d bb
       -0.0052260496 -0.0053327503 -0.009109073 -0.002408334
000160 ca 8e 41 3b b1 28 ab 3b e4 5a 85 39 6d ba 29 3c
       0.0029534572 0.0052233567 0.00025435456 0.010359389
000170 e5 f7 cd bb ae 20 d9 3c 14 cb b7 bb 22 47 f2 bb
       -0.006285655 0.02650484 -0.0056089256 -0.0073937336
000180 2e b8 9b bb 07 bd 04 bc ab 58 3b bc 08 fc 96 3b
       -0.0047521805 -0.008101708 -0.011434714 0.004607681
000190 dd 8f fc bb aa d3 1e bb 29 10 1c bc c5 b4 52 bc
       -0.0077075795 -0.0024235048 -0.009525337 -0.012860482
0001a0 d0 65 ea 3c 02 c4 f7 bb 15 a1 c3 3c 12 10 48 3a
       0.028613001 -0.0075612077 0.02388052 0.0007631789
0001b0 ef 43 e5 b9 3e a6 09 3c 7b a1 39 bc cc 91 d5 bb
       -0.00043728898 0.008401452 -0.011330004 -0.0065176245
0001c0 ea 68 af ba af 59 f8 bc d2 45 08 3c 14 cf 7b bb
       -0.0013382707 -0.030316202 0.008317428 -0.0038422989
0001d0 b5 d7 e1 bd fc ce 0f 3f 63 cf 8d 3c 40 4e f9 3b
       -0.11027471 0.5617521 0.017310804 0.007608205
0001e0 b1 c9 15 bf 88 2e fa ba 49 ab 1b bc 76 97 2b 3b
       -0.5851088 -0.0019087354 -0.009501287 0.0026182807
0001f0 35 9c ee ba 16 cc 4a 3b ed c0 c7 bb 13 57 8e ba
       -0.0018204512 0.0030944399 -0.0060959966 -0.001085969
000200 44 d8 17 bc 66 a2 39 b9 b6 44 74 3c ae 64 a1 3e
       -0.00926787 -0.00017703473 0.01490896 0.31522125
000210 c7 bd e5 b9 b2 73 14 3c 97 fe 98 3b 2f 31 1d 3c
       -0.0004381968 0.009060787 0.0046690213 0.009594246
000220 51 a9 94 3a 1b d5 e7 bb 6e 67 f2 3a 6c 85 8b bb
       0.0011341964 -0.0070749647 0.0018493959 -0.0042578485
000230 12 44 88 bb 23 19 44 bc e4 1a 97 3b 73 a4 9b bb
       -0.0041585052 -0.011968884 0.00461136 -0.0047498285
000240 ce 0b cc bb 78 d9 47 bb 00 f6 7f 3c 90 5e 75 3c
       -0.006226993 -0.0030494612 0.015622616 0.014976159
000250 5f 5a 76 3c 33 b8 71 3a cf 08 8d 3d e1 f0 84 bb
       0.015036195 0.0009220868 0.06886446 -0.0040570353
000260 cb 1f 93 bd 93 17 d6 3c ab cd d3 3c b5 41 f9 bb
       -0.071837984 0.026134288 0.025854906 -0.00760671
000270 29 be 37 bb 17 e5 d3 b9 25 f5 60 3b f7 52 c5 bc
       -0.0028036928 -0.0004041574 0.0034325805 -0.024087412
000280 61 c9 ae bb c2 48 9e 3b be f1 87 3a 59 75 5d 39
       -0.005334065 0.0048304508 0.0010371727 0.00021119918
000290 de 93 c7 3c 36 50 f8 bb a8 75 5a 3f 8e 64 e3 3c
       0.0243625 -0.0075779213 0.8533578 0.02775791
0002a0 73 ad 1e bb e6 2a e9 bc c3 a2 49 bb ea e0 27 bb
       -0.002421227 -0.028462838 -0.003076718 -0.0025616237
0002b0 01 6e fa 3a 55 6c 05 bf 82 75 28 3c 9c e0 28 bb
       0.001910627 -0.52118427 0.010281922 -0.0025768643
0002c0 ee 49 50 bb 97 f3 3e bb c1 9e 4a 3b be bf f5 3a
       -0.0031782347 -0.002913689 0.0030917379 0.001874916
0002d0 50 5e 05 3f 63 8b 06 3c 4d 88 e8 bb f4 30 82 bb
       0.52097034 0.008211943 -0.0070963264 -0.003973121
0002e0 ad 41 9e bb 54 82 f8 3b e1 66 24 3b 63 80 d0 bb
       -0.0048296065 0.0075838957 0.0025085735 -0.006362961
0002f0 ae 53 05 3c 78 10 08 3a f8 fc b1 ba 0f 96 af 3c
       0.008137627 0.00051904423 -0.0013579419 0.021433858
000300 9b f8 ae bb 1e 8d 94 bb 7c 01 e0 3b f9 11 80 bc
       -0.0053396947 -0.004533424 0.0068361145 -0.01563357
000310 14 7b 12 3c 90 40 c2 3b 09 a5 15 3d 86 02 76 3a
       0.008940477 0.0059281066 0.036534343 0.00093845313
000320 9c 52 20 bf ac 41 7f 3e 87 cb a6 bc 42 dc 6a bb
       -0.6262605 0.24927396 -0.020360721 -0.003583685
000330 ac c8 5f 3b b6 4d cc bb 69 5d 79 3d ea 7f 40 bc
       0.003414671 -0.00623485 0.0608801 -0.011749247
000340 16 06 61 b9 88 aa a9 bc 82 c2 52 b9 2f 21 82 3c
       -0.0002145994 -0.020711198 -0.0002009962 0.015884964
000350 f4 43 e3 3b 64 65 63 3d 0a 1e a6 bd e6 bf 22 3c
       0.006935591 0.055516616 -0.08111198 0.009933447
000360 9c 32 8c 3b fd 91 0a 3f ab 05 03 bc ff 73 3e 3b
       0.004278494 0.5412901 -0.007996957 0.0029060838
000370 d8 f5 a6 bb 44 ab f6 be ca 02 fa bc 9e 77 04 ba
       -0.005095225 -0.4817754 -0.030518908 -0.0005053225
000380 82 6c 34 bc 30 06 5f 3c ab f6 b2 bb f6 71 86 bb
       -0.011012198 0.013612315 -0.005461534 -0.0041029407
000390 87 1b a3 be 4d 8e d1 3b 1c e2 d0 3b 78 7d e4 3b
       -0.3185694 0.0063951374 0.0063746106 0.006972965
0003a0 b0 7d 29 ba bf c7 75 3c 6b 8e c1 3b fc 72 20 3b
       -0.0006465567 0.015001236 0.00590687 0.0024482599
0003b0 a6 29 86 b9 80 44 22 3c 50 14 3b 3c 33 63 88 3b
       -0.00025589502 0.009904027 0.011418417 0.004162216
0003c0 3f eb a6 3b 84 28 0e bb 14 84 0b 3c 84 a7 83 3a
       0.0050939615 -0.002169163 0.008515377 0.001004443
0003d0 99 34 45 bb 27 02 14 bb b1 55 10 bd 5f 50 29 ba
       -0.0030091165 -0.002258429 -0.03523797 -0.00064588146
0003e0 06 0e f7 3d 30 66 b5 3e a0 d6 b2 3c 80 2a 70 bb
       0.12063222 0.35429525 0.021830857 -0.0036646426
0003f0 c9 31 20 ba e6 36 a9 3b 7d 8f ea be 82 5d 77 3b
       -0.0006110934 0.005164015 -0.45812598 0.0037744944

encoder.10.bias f4 [16]
000000 d7 cf 7e bd 4c 1b 02 3e e7 90 73 3e 29 29 df 3d
       -0.06220993 0.12705725 0.23785745 0.108965226
000010 71 83 77 bd bb bf f7 bc aa f7 47 be 02 ef e4 bd
       -0.060428087 -0.030242791 -0.1952807 -0.111783996
000020 fb e0 25 bd 27 c0 c8 bd 7a 8f a8 bd 14 5e 13 3e
       -0.04049776 -0.09802275 -0.08230491 0.14391357
000030 58 e5 7a be 82 ec 80 be c3 a1 3d 3e b2 a6 80 be
       -0.2450155 -0.2518044 0.18518738 -0.25127178
