aePyTorch/trained_models/L64.52.44.32.24.16B128Lr3e-03SigmoidLatent/bestModel.pt (torch, 109703 bytes, 24 tensors)

encoder.0.weight f4 [64, 67]
00000000: b0dc 693e 8c6b 6e3e 96e8 3f3e 0620 c83e
00000010: 33cb 713f 8337 933f efa5 1f3f bc45 843c
00000020: 78fc a33e 8aa5 b6be 76fb eb3e 357d 72be
00000030: e7dc 523f c69a 323f a683 103f 341f d03e
00000040: 53e4 213f c8af 5cbe ae81 973e 5c43 653d
00000050: a30c 143f f3e3 403f b1ff 063f 05b5 97be
00000060: be9d 273e 6df4 bb3e a9f9 a43d 083f f93e
00000070: 7cd3 163f bc94 c03e ca19 173f 8c5f 753c
00000080: 8830 2abe 980d 18be 93c3 e13d 03d1 95be
00000090: 66b3 1b3f 44ee c73e 1f61 ec3e 2341 1a3e
000000a0: 3362 563f 4760 353e b613 45c1 1b28 0b3f
000000b0: 311d 923f f7b5 21c0 bd9d 493e 38c0 323e
000000c0: 33e9 b83e 6797 bb3e 836c 623e c859 883f
000000d0: 6893 553e c60f 103f a555 eb3e 5605 ea3c
000000e0: 9884 3b3d df9d e23d 0adc 1e3f 8b5c 883f
000000f0: d4d3 7f3f fc22 c6be 979d b0be cac0 c63d
00000100: 25c6 1a3f 45a1 5b3f 497e 223f ff71 ca3e
00000110: 9dc3 1d3e 5d4b 1dbf 0eb1 3f3e fbd8 9bbf
00000120: 3a37 efbf 0218 18bf 50d3 9fbc da1c cf3d
00000130: 6ddb 7f3f cc69 0cbe db50 e73f 669e 94bf
00000140: d854 b2bf d91b 53be a77e 0d3e c4b5 243f
00000150: 6c73 353f c7e8 733d dcb8 153e b9fc d0be
00000160: 6832 2abf ae85 f2be 5a0f c0bc c585 133f
00000170: 2d5e bf3e 5076 d63c eba7 a53d ea10 5fbf
00000180: 9bfc 16bf b72d 12bf eced a1bd 2c1f 91be
00000190: 40b8 bf3f 6843 6b3e 1bbe 7b40 2374 0fbf
000001a0: 3d51 27bf 2e8c 3abe ec65 fa3d 7913 8bbd
000001b0: de9f e5ba 8ece 9dbe 1744 333f 187a 01bf
000001c0: b7b0 d3be 4657 45bf aa6e 1340 1176 17bf
000001d0: a5ad 8f3d 3170 8abe 2d66 61bd 12d8 47be
000001e0: 8abd 38bf cc42 96be 3beb 383d d1c1 9fbc
000001f0: f228 f0bd 003d 15bf 5e59 8dbf d188 a73f
00000200: 7e85 543f c9f0 063f 5a47 9e3f d822 17bf
00000210: 3c61 69bf 7938 89be 4a0c 80be 0b81 21bf
00000220: 5db4 803f 2a65 bf3e 5b28 b73e 0c97 6fbe
00000230: 99fa ff3b f708 c3bd 2acf 8fbd 4333 343f
00000240: 641c 8e3f c4d7 c03d 2dc9 28bc 2b60 253e
00000250: c7bc de3e da82 493d ef7c 16be a784 77be
00000260: e723 8a3f 9f95 f63d 41b0 713d 571d 113d
00000270: dcf5 b0bd 8c36 293e c15e 19bf 6a89 0340
00000280: 3496 d43e e154 383c 9f23 4ebe 3c19 0b3f
00000290: 3886 0c3f 032b a03b b323 f5be 287c 043e
000002a0: f298 7e3e 52bf 063f 17e4 1fbd cfc7 d1bb
000002b0: b5f7 0cbf 35b3 a63d df37 e4be b310 49be
000002c0: 4bbd ac3e 5e4e 033d 846e af3d 1ca8 71bd
000002d0: 0d12 82be e700 c9bd 37cb f9be 19ec 88bd
000002e0: 17e4 51be 3148 f9be 2466 0ebf b4ad bbbe
000002f0: eb3e 90be 481f 473e 56f4 8e3e 138d dbbd
00000300: 37a0 cb3d d032 cabe 8f58 163d f6cc 703e
00000310: e814 7dbe ba01 883e f3c2 5dbe aa31 1cbf
00000320: 74fb d7bb a4b5 c03e 7a2c e7be 9bd5 3ebd
00000330: 0a86 c9be 22ae ae3e 01a4 9ebe b257 853e
00000340: e19e 883e d79a 403b 6a2e 013e 93bc 1abd
00000350: dbed 8e3e 1f0c ad3e e8fa a03d 409c 033e
00000360: d2df 2b3e c96e 7a3e 90cb 4fbd b18c 8fba
00000370: 17e2 113d 2b00 ca3e 0247 de3d 947e ad3e
00000380: eb6b 3dbe d70e 733e be44 41bd aaeb 0e3d
00000390: d239 f3bd 187a 423e f6e7 ba3e ea64 3c3d
000003a0: 880e 86bd c8f3 ba3e 6a9d 2e3d d6db 283e
000003b0: 3cf4 9ebe 9efa b43d 14bc 7f3e 8e86 c83d
000003c0: 494e d43f 3cbc 883e 597d 713e 5116 873d
000003d0: f664 80bf ec65 f63d df50 7c3e 9dc7 3bbe
000003e0: 4694 493e 39a6 3d40 63c7 0f3e bca2 6ec0
000003f0: 40d3 85bf de05 3cc0 a178 e8bf b799 163e
0.22838092 0.23283213 0.18741068 0.39086932 0.9445068 1.1501316 0.6236257 0.016146533
0.32028556 -0.3567317 0.46090287 -0.23680575 0.8236832 0.69767416 0.5645088 0.40648806
0.6323902 -0.2155143 0.29591125 0.055972442 0.5783178 0.7534782 0.52733904 -0.29630294
0.16368768 0.3670992 0.080554314 0.48680902 0.5891645 0.37613475 0.59023726 0.014976393
-0.16620076 -0.14848936 0.11023631 -0.29261026 0.60820615 0.3904897 0.46167848 0.1506391
0.8374359 0.17712508 -12.317312 0.5435807 1.1415159 -2.5267313 0.19689079 0.17456138
0.36115417 0.36638948 0.22111706 1.0652399 0.20857012 0.5627407 0.4596378 0.028566997
0.045780748 0.11065268 0.620545 1.0653242 0.999326 -0.38698566 -0.34495232 0.0970474
0.60458595 0.8579295 0.63473946 0.39540097 0.15406652 -0.6144312 0.18719885 -1.2175592
-1.8688729 -0.59411633 -0.019509941 0.10112925 0.9994419 -0.13712233 1.807155 -1.1610839
-1.3932142 -0.20616092 0.13817845 0.6433985 0.70879245 0.059548166 0.146213 -0.40817812
-0.66483164 -0.47367615 -0.02344482 0.5762599 0.37376538 0.026179463 0.080886684 -0.87135184
-0.58979195 -0.57101005 -0.07906708 -0.28344095 1.4978104 0.22974932 3.933478 -0.56036586
-0.65358335 -0.18217537 0.12226471 -0.067908235 -0.0017518958 -0.3082165 0.7002577 -0.50576925
-0.4134576 -0.77086294 2.3036294 -0.5916453 0.07015542 -0.2703872 -0.055029083 -0.19516018
-0.72164214 -0.29347837 0.04514621 -0.019501599 -0.1172656 -0.58296204 -1.1042898 1.3088628
0.8301619 0.5271116 1.2365525 -0.5903754 -0.9116399 -0.26800898 -0.25009376 -0.6308753
1.0055043 0.3738187 0.35772976 -0.23397464 0.007811856 -0.09523194 -0.07021935 0.7039072
1.1102414 0.09416154 -0.01030187 0.16149966 0.435034 0.049197055 -0.14696096 -0.24171697
1.0792207 0.12040257 0.05900598 0.03542837 -0.08640644 0.16524714 -0.5991021 2.055262
0.41520846 0.011250705 -0.20130776 0.5433538 0.548923 0.00488794 -0.478788 0.12937987
0.24863032 0.5263568 -0.039035883 -0.006401993 -0.5506547 0.0813965 -0.44573876 -0.19635276
0.3373817 0.03205716 0.08566001 -0.058998212 -0.25404397 -0.09814625 -0.48787853 -0.06685657
-0.20497166 -0.4868789 -0.55624604 -0.36655962 -0.28173003 0.19445527 0.2792079 -0.10720267
0.09942668 -0.39491892 0.03670555 0.23515686 -0.24715006 0.26563817 -0.21656398 -0.6101328
-0.006591255 0.3763858 -0.4515112 -0.04659043 -0.39360076 0.34117228 -0.309845 0.2604347
0.26683715 0.0029389167 0.12615362 -0.037777495 0.27915844 0.3379831 0.078603566 0.12852573
0.167846 0.24456324 -0.05073124 -0.0010951963 0.035616007 0.39453253 0.108533874 0.33885634
-0.18498199 0.2373613 -0.0471847 0.034892716 -0.11876263 0.18991888 0.36505097 0.045994677
-0.0654574 0.36514115 0.04263059 0.16490111 -0.3104571 0.08836864 0.2497409 0.09791289
1.6586391 0.2670611 0.23582973 0.065960534 -1.0030811 0.12031159 0.24640225 -0.18337865
0.19685468 2.9632704 0.14040904 -3.7286825 -1.0455093 -2.937858 -1.8161813 0.14707075

encoder.0.bias f4 [64]
00000000: c235 6a3f 3f47 aabf b089 02bf dbb4 81be
00000010: 04c7 9dbb dfda 38bf 8a79 e4be 1095 36bf
00000020: cb31 c33e 2126 b5be 402a 623e 1597 17be
00000030: 9545 8fbe ffa8 05bf cb1c a0be 32e0 193f
00000040: 6a3d 3bbe cacd 9bbf 84a3 7abf 2f46 4abf
00000050: fc9f ed3e eaf8 1d3e 7f79 dabd cdfb 5cbf
00000060: 7122 8fbf c72d 803d 7b23 ed3e 4d2b a43e
00000070: 8759 0b3d 1dae 273f 5f96 5cbf 7962 a43e
00000080: bc17 1a3e 8f2d 3a3f fb1c 423f 61c9 9fbe
00000090: 0040 26bf 00e1 75bf 8195 2bbe cd43 e1be
000000a0: db03 3e3b d159 2b3f 0917 053f d428 30bf
000000b0: 440c d43d 2b14 13bf 3361 edbe 1132 353f
000000c0: 72a7 14bf e6d0 a0bd 74c0 b73e d887 22bf
000000d0: 82c0 89bd 8528 133d 2254 193f 62f2 213e
000000e0: 3086 26bf f033 97bd 49dd 64be 2309 c8be
000000f0: d8cd 25bd 66f8 ecbc e8e3 053d 57d9 b63e
0.9148828 -1.3302993 -0.50991344 -0.25333294 -0.0048149843 -0.7220897 -0.44623977 -0.713212
0.38123927 -0.35380653 0.2208643 -0.14803727 -0.27982774 -0.5221099 -0.31271967 0.6010772
-0.18285146 -1.2172177 -0.97905755 -0.7901334 0.4641112 0.15426984 -0.10667705 -0.8632172
-1.1182386 0.06258731 0.46316132 0.32064286 0.034020927 0.6550005 -0.8616695 0.3210638
0.15048116 0.72725767 0.7582547 -0.31208327 -0.64941406 -0.9604645 -0.1675625 -0.4399704
0.0028993997 0.66933924 0.51988274 -0.688123 0.10353902 -0.5745265 -0.4636322 0.7077952
-0.58068 -0.07852344 0.35889018 -0.6348853 -0.06726171 0.035927314 0.59894 0.15815118
-0.65048504 -0.07382953 -0.22350039 -0.3906947 -0.04047951 -0.02892704 0.03268805 0.35712692

encoder.2.weight f4 [52, 64]
00000000: b838 14bc 61e2 3d3f ab0b 683f ad6c 3c3c
00000010: 9f13 e4be 5ba3 913d 5c54 5140 0422 c140
00000020: e5ec 303e aaf6 f53e 6d31 2ebe 912e 493e
00000030: e777 a33c 8405 cc3f fbe8 11bd 3ebc 4ebd
00000040: fc27 8bbc ab50 713f ae39 1b3f be99 27bd
00000050: e6f7 47be feb9 7ebd 6637 edbe 92df f73f
00000060: 332a 5c3f 81d4 bdbe 3df1 bc3d d050 f6bd
00000070: bab4 09bf f439 60be 11a7 ea3f 51b4 ecbe
00000080: 0c53 3a3f da31 01be ce4f d03d ceb7 67bd
00000090: ee7e e03e 8186 ed3d 0998 b1be b437 40be
000000a0: ce2d a4be 8302 c4bd e39b 5c3e 3840 fabe
000000b0: 9a52 cdbd 67fa f83d 1343 89bc 7770 a13e
000000c0: 546d 0dc0 9512 5abd 5d97 623e 59fd e3bf
000000d0: a232 bebf 276f 98bc ca93 0dbf d378 983d
000000e0: 0e70 2b3f e300 32bd 6163 00be cad6 cf3f
000000f0: 8fa3 c23e 2b72 cbbe 9e10 bebb ba3a c7bc
00000100: aa2f 45bf 9f95 c23f 33d0 7ebe 8f9f 9b3f
00000110: 70f6 b3bf a51e 823e c7fe 723e 8300 b73e
00000120: 3eb6 64be fc53 57be 6582 353d 91ee cd3d
00000130: 42c2 bebd ad10 d33f 8b08 2840 6204 f1be
00000140: 6096 12c0 725c 93be b08c 923e f366 93bf
00000150: bc08 443f a679 913e 327b 373e fc1c e13f
00000160: 8a71 dabe 5770 293f 511e 0fbf e4a7 26bf
00000170: d6d5 aabd 11ea 0dbf 8691 29be 6446 1b3f
00000180: a995 53be 5696 f13e adae f33e c287 d33f
00000190: 7a04 d93f af17 863e 7079 033f ae3d 1e3f
000001a0: 685d 01bd 475a 593f 0c78 97bf 3b04 d13f
000001b0: 7b71 563e 02fe 323f 1903 af3e f478 23bf
000001c0: a02b 2bbf 0004 a1be ed05 d2be ba0f d5be
000001d0: 2ed2 43bf e4c1 7c3f f807 413f 2e1a 82bf
000001e0: a832 843f e5d7 40bf ca88 893f 513f dc3f
000001f0: 8a93 833e f489 98be a9d0 88be 6ab3 e2bf
00000200: c1b6 c6bb 616a 843e a0aa debc 9014 9cbe
00000210: 5e2e 9d3c 27c2 9ebc 1ef5 a8bc 9be5 1e3d
00000220: 217b e3bc 9942 943d 1404 1bbe f31c 723d
00000230: f35a 043d 25aa d33e cb55 9cbf fee6 f7bc
00000240: 5e3c 13bd 1f07 ba3b 1ee9 463c 05da b4bc
00000250: 75da 20bd 76df c53c bec9 563d 2e69 1a3f
00000260: 8ea8 a83c 1f05 44bc 0c18 3fbd 0e2a d7bb
00000270: fc45 0d3d aec6 b9bc 700b 943d cab9 003c
00000280: 3a95 98bd ba50 543c cf73 bf3c d29e 233b
00000290: 5d93 c23e 40da e8bb 945e 73bd 8982 3e3f
000002a0: 2bae 0b3c 35b1 c13b bd1e 993c ad8d 913e
000002b0: c8a1 99bd 788e 55bd 01ef 57bd 5251 2dbe
000002c0: eb37 8b3a b22b b13d dc6b 80bc 7b54 57bc
000002d0: 3bb1 393d d0a9 9c3d 06cf c0bc d71d 3240
000002e0: 51bd 193e e69e 5abc fc4a bebc 41d8 493e
000002f0: 12a0 163c 52ab be3c a2cb 34bc 7b8a d83c
00000300: edea 9dbe 99d2 6c3f ec7e 23bf 46e4 ee3e
00000310: 5b51 3fbf 975a c4bd 43d3 ce3e 7878 123e
00000320: ae0e 39bc f329 2dbf 9d29 da3e 2f00 9bbc
00000330: 040f 09bf 20a9 6d3f bb96 e43e bede 30bf
00000340: 3ffd 353f 80cc e7be 4103 c3be 9252 623f
00000350: 2c95 1c3f 43c7 9abd 4dd5 97be 02ef 2c3f
00000360: aef7 2cbe efe3 053f 731f c93d 696e 46bd
00000370: 898e 473e b8df a4bd 2a40 9d3a 93d3 fdbd
00000380: db42 0c3e b856 0b3f 0891 0ebf 3113 54bd
00000390: 6c73 443f ff52 e2be ec52 c83d a359 013e
000003a0: fb96 153f 9d81 a23e ac60 fbbe b041 eb3e
000003b0: d11f a8bd e56a 463d 1f10 393e 631d 2d3e
000003c0: 55fa 5a3a a885 37bd 723d 94be b933 21bd
000003d0: f9ed 72be d9bc 47bf 2ffc 473f d92f bdbe
000003e0: 9180 083f 763e f0be f5fe 02bd c1d7 e13e
000003f0: 6a96 22bd 7760 2dbf fccc 78c0 2b61 403e
-0.009046726 0.7417355 0.90642804 0.01150052 -0.4454622 0.07111236 3.270774 6.0354023
0.17277868 0.48039752 -0.17011042 0.1964667 0.019954635 1.5939183 -0.035622578 -0.05047249
-0.01698684 0.94263715 0.6063489 -0.040918104 -0.1952816 -0.062189095 -0.46331328 1.9365103
0.8600189 -0.3707619 0.092257 -0.120271325 -0.5379139 -0.21897107 1.8332235 -0.4623132
0.7278297 -0.12616673 0.101714715 -0.056571774 0.4384684 0.1159792 -0.34686306 -0.18771249
-0.32066196 -0.095707916 0.21543841 -0.4887712 -0.100255206 0.121571355 -0.016755616 0.31531116
-2.2097979 -0.053240377 0.22128053 -1.781169 -1.4859202 -0.018607689 -0.55303633 0.074449204
0.66967857 -0.043457877 -0.1253791 1.6237423 0.3801541 -0.3973554 -0.0058003208 -0.024319995
-0.77025855 1.5201911 -0.24884109 1.2158068 -1.4059582 0.25414005 0.23730002 0.35742578
-0.22335145 -0.21028131 0.044313807 0.100552686 -0.093143955 1.6489464 2.6255214 -0.47073656
-2.2904282 -0.28781468 0.2862296 -1.1515793 0.7657583 0.28413123 0.17918089 1.758697
-0.42664748 0.6618704 -0.55905634 -0.6509993 -0.08341567 -0.5543528 -0.16559419 0.6065428
-0.2066256 0.4718501 0.47594205 1.6525805 1.6954491 0.26189944 0.51357174 0.61812866
-0.03158322 0.8490338 -1.183351 1.6329416 0.20941727 0.69918835 0.3418205 -0.63856435
-0.6686344 -0.31448364 -0.41020146 -0.4161356 -0.76492584 0.98733354 0.75402784 -1.016424
1.0327959 -0.7532943 1.074487 1.7206823 0.256985 -0.2979275 -0.26721695 -1.7711003
-0.0060642664 0.2586241 -0.02718097 -0.30484438 0.019187149 -0.019379688 -0.020624693 0.038793188
-0.027768673 0.07239265 -0.15138274 0.05910964 0.0323133 0.41340747 -1.2213682 -0.030261513
-0.035946243 0.0056771184 0.01214054 -0.022076616 -0.039270837 0.024154406 0.05243849 0.6031674
0.020588186 -0.011964112 -0.046653792 -0.0065662926 0.03449057 -0.022677746 0.07228744 0.007856796
-0.07450338 0.0129587 0.023370652 0.002496649 0.38003054 -0.0071060956 -0.05941637 0.7441793
0.008525412 0.0059110173 0.018691415 0.28428403 -0.075015604 -0.052137822 -0.052718166 -0.16925552
0.0010621523 0.08650912 -0.015676431 -0.0131427 0.045335036 0.07649577 -0.023536216 2.7830713
0.15013625 -0.013343548 -0.023229115 0.197114 0.009193437 0.023275051 -0.011034878 0.02643322
-0.30843297 0.92508847 -0.6386554 0.46658534 -0.74733514 -0.09587591 0.40395555 0.14303768
-0.011295004 -0.67642134 0.42609873 -0.018920986 -0.5353854 0.9283619 0.44646248 -0.6908988
0.7108955 -0.4527321 -0.3808842 0.8840724 0.6116512 -0.075575374 -0.29654923 0.67552197
-0.16891357 0.52300924 0.098204516 -0.04844514 0.19487967 -0.080504835 0.0011997272 -0.1239387
0.13697378 0.544292 -0.5569005 -0.051776115 0.7673862 -0.44203946 0.09781441 0.1263185
0.584335 0.31739512 -0.49097192 0.45948553 -0.082091935 0.048441786 0.18072556 0.16905741
0.00083533424 -0.0448052 -0.2895313 -0.039355967 -0.23723592 -0.78022534 0.78119177 -0.36950567
0.53321177 -0.46922654 -0.031981427 0.4410992 -0.039694227 -0.6772532 -3.8875113 0.18787067

encoder.2.bias f4 [52]
00000000: eda6 93bf b1bb 0dc0 1f06 25bf f15f 85bf
00000010: 0e63 b1be b8f8 35c0 49cc b8be 88e8 4bbf
00000020: bd84 68bf da3f c6bf 1dc9 80ba ccbc 97bf
00000030: c9e4 233d 6bf3 d7bf 6ce1 ffbd b292 78be
00000040: 60fe 4ebe 0379 d5bf 261a 57be 421d 9cbf
00000050: 161a 63bf 14b2 69bd 30e5 083e 2e53 7dbf
00000060: 6fa1 c1bf 3d96 efbf 94d1 a3bf 8606 f7bf
00000070: 3dcd b0bf 904d 7bbf d17e 88bf 9015 d8be
00000080: 2a53 6fbe f59c 82bf 9eeb d8be 8281 fdbf
00000090: 04da 97be e428 593f b170 95be 7807 0dbe
000000a0: 0717 15c0 ea38 10bf fbed 48bf 2a4f 82bf
000000b0: 58b8 a4bd f897 fbbf dabb 143f 9efc ca3e
000000c0: 11ac dd3e b0a7 c03e a635 dcbf bb58 abbe
-1.1535317 -2.2145808 -0.64462465 -1.0419904 -0.34645885 -2.8433056 -0.36093357 -0.7965169
-0.9082754 -1.5488236 -0.0009825561 -1.1854491 0.04001311 -1.687116 -0.12494168 -0.2427471
-0.20214224 -1.6677555 -0.21006069 -1.2196429 -0.8871168 -0.057054594 0.13368678 -0.9895505
-1.5127391 -1.8717724 -1.2798333 -1.9298866 -1.3812634 -0.98165226 -1.0663701 -0.4220395
-0.23371568 -1.020415 -0.42367262 -1.9805148 -0.2965852 0.8482802 -0.2918754 -0.1377238
-2.3295305 -0.56336844 -0.7848813 -1.0180409 -0.08042973 -1.9655752 0.5809914 0.39645857
0.4329534 0.37627935 -1.7203872 -0.33466133

encoder.4.weight f4 [44, 52]
00000000: aa65 923b 45c6 5d3d d3bf a23f 8fb6 593d
00000010: 90b6 033c 01df 26bd b5bb 3dbd fe1f 7b3d
00000020: 835b 2d3c c9d0 453e ee43 85bd dc87 453c
00000030: 142e 8e3b 0c2c c53d 095e c0bc 96a1 323c
00000040: 788c 123a 0c34 863c a7e8 223c 3266 de3b
00000050: 4d6a 783d 7fdc c5ba eadd 7a3d d6b6 da3c
00000060: 4b1a f93c 6217 3e3d 9b19 663e badf a53e
00000070: 300c 6a3d 2ef7 8ebb d4a4 c0bb 9176 33ba
00000080: 03ae 6f3c 04a1 ac3b f2cc 19c0 a436 0dbb
00000090: c76b 083c b6c6 1f3d 90b1 203c 4380 c6bb
000000a0: 992f 08bf e15a 6dbc 3115 cb3e 4c29 9abd
000000b0: a229 c1bc b6a3 553e 29be 823b 2bd1 1b3d
000000c0: e1d2 fdbc c370 a43a 3846 543c 9e3e 16bb
000000d0: 86eb 813d 715a 8a3e c147 78be 9d40 8a3f
000000e0: d542 ec3e 8fc1 1640 c81e ad3e fab5 043f
000000f0: 4026 a0bd 95ac 0940 f7fc 76bf a993 5bbe
00000100: 8507 fabe ea65 4e3f 85fe 6cbf 530b e53e
00000110: 5ad0 3c3e 1e07 aa3e ad42 de3c 96ef 61bf
00000120: f228 993e 5e76 ca3d 2a5b 88be 80b9 de3f
00000130: e548 1740 9728 733f 39ce 2340 89ac 1040
00000140: 5bd3 b63f 34ae 983c ba25 1d3f b6e3 2ebe
00000150: e40b 71be 9fa8 f7bf 2a77 a5bd eac1 cabc
00000160: 6fff 1f3d 1c9a bebe 10aa b5be c524 203e
00000170: 3672 1140 9c43 1a3d 52dc 513e 726b 1440
00000180: c88f c13d 9082 0a40 0ff8 513f cb26 12be
00000190: c1fc aebe 38f7 b7be 067c b23e eb61 14bf
000001a0: e97b 1cbc fb0b 84ba 0cde 513c 9bf0 9cbd
000001b0: c545 83bb 154f 3f3e b027 3938 ef4c 49bb
000001c0: 33da e6bb 3626 4e3e c2f4 01bc 9611 bd3b
000001d0: e516 ccbc 0072 cbbd 3da7 c53d 68c3 45bc
000001e0: 1967 a4bb 3d92 6fc0 df41 57bd 92d9 05bc
000001f0: dc7b adbb 0678 13bc 1a87 a53b d58b 9bbb
00000200: 0820 fb3d 4c4a df3c 38d1 7dbd 3086 d63d
00000210: ee73 69bd 5f78 acba 8379 a6bc efe1 14bb
00000220: ca6b a83b 1386 62bb db03 d63b 3d84 7fbb
00000230: 6bd5 4b3a 55b5 ca3c 7c44 ab3f ace1 943c
00000240: 4455 203e 47a8 863a 9e73 953c b63f 0c3d
00000250: 7a8d 2dbf 3138 0ebf 7d64 873b d214 d33b
00000260: 9308 253d e9b4 513c 59d0 5bbd afa9 48bc
00000270: 28cd ca3a 4cbc 19bd 66a3 e339 da3c c6bc
00000280: 0555 543c d2ee d13d cfa5 a6be 6c92 973f
00000290: 3a96 e7bb 038b 18be eae0 c7bd 2d11 5cbb
000002a0: c262 a13a f800 37bd 9401 ac3b 7ff3 edbf
000002b0: 6419 2040 24aa c3bb 8721 21ba 436d ff3c
000002c0: 0689 e3bb d70a 9d3b b9b3 54bc c753 57bc
000002d0: ebeb 89be 6671 b4bc 9291 b5bd 9fa7 b7bd
000002e0: 0836 06be 0b78 7f3a 3981 0abc 6952 0c3c
000002f0: e7fe 9d3a b8ce c03a 76f1 45ba 2802 0d3b
00000300: 2eab 083e 76f8 66bc 2c92 c8bb c479 1b3c
00000310: 8389 c3bf 7ba5 7f3e ab43 5bbc 279a 28bf
00000320: fb78 ccbc cde4 dc3e 652f 0f3b d3df 1bbc
00000330: c86d e7b9 a004 96bb 15a5 ebbb 8130 2abc
00000340: f27e 293c 4abb 3dbc b613 8d3c 507a c03d
00000350: e249 c13c f005 ba3e 59b0 c33f eb9b a43e
00000360: 79a2 4e3c c702 063e 71ef 893f b4c1 723a
00000370: dd27 5f3b 4a47 5dc0 e670 aebc 1c90 90bd
00000380: 8400 1d3d be14 0f3a 44ae 8fbb 6321 423d
00000390: 3b83 8cbc 6e84 84bb cd94 8fbc 0a11 203d
000003a0: dc2a 663e c7cb 9fbc 954d 1c3f f348 ae3e
000003b0: 7ecc dabf 2683 8838 88cd 393c b743 0dbc
000003c0: 70ff 01bd fb84 b53b 79b7 933c 6cd5 13bb
000003d0: 2526 ff3d 9ae0 893c 6e5e 493c 60d2 47bd
000003e0: e8de 613e 925a 623c 3009 ab3c b0bc 6d3e
000003f0: fcb6 643c 5fd9 033f b755 223c c9f5 d33a
0.0044676857 0.054144163 1.271479 0.053152617 0.008039132 -0.040740017 -0.04632159 0.061309807
0.0105809 0.19317926 -0.06507097 0.012056317 0.004338989 0.09627542 -0.02348234 0.010902783
0.00055903895 0.01638224 0.009943164 0.006787085 0.06064825 -0.001509562 0.06124679 0.026698511
0.030408045 0.04640902 0.22470705 0.32397252 0.05714053 -0.004362962 -0.005879024 -0.0006845976
0.01462889 0.005268218 -2.4031339 -0.002154746 0.008326477 0.039007865 0.009807959 -0.0060577705
-0.5319763 -0.014486999 0.39664605 -0.07527408 -0.023579422 0.20863232 0.003989954 0.038041275
-0.030984344 0.0012545813 0.012956195 -0.0022925506 0.06343751 0.27022126 -0.24246122 1.0800968
0.4614474 2.3555639 0.33812547 0.51840174 -0.078197956 2.1511586 -0.96479744 -0.21443047
-0.48833862 0.8062426 -0.92575866 0.44735202 0.18438855 0.33208555 0.027131403 -0.88256204
0.2991405 0.09885858 -0.26632053 1.740036 2.3638241 0.9498381 2.5594618 2.2605307
1.428325 0.018637754 0.6138569 -0.17079052 -0.23539692 -1.9348334 -0.08079369 -0.024750669
0.03906196 -0.3722695 -0.3548131 0.15639026 2.272596 0.037662134 0.20494202 2.319058
0.09451252 2.164219 0.8201913 -0.14272611 -0.3417721 -0.359308 0.34860247 -0.5796191
-0.009551027 -0.0010074371 0.012809288 -0.07663079 -0.00400612 0.18682511 4.41444e-05 -0.0030716022
-0.0070450543 0.20131764 -0.00793189 0.0057699187 -0.02491326 -0.09933853 0.09651039 -0.012070514
-0.005017173 -3.7433007 -0.052553054 -0.008169549 -0.005294306 -0.009000784 0.0050515058 -0.004746894
0.12261969 0.027257107 -0.061967105 0.10474813 -0.056995325 -0.0013158432 -0.020321613 -0.0022717675
0.0051398026 -0.0034564778 0.0065312213 -0.0038988732 0.0007775637 0.024744669 1.3380275 0.018174015
0.15657526 0.0010273539 0.018243607 0.034240447 -0.67794 -0.5555449 0.004131852 0.006441691
0.04029138 0.01279948 -0.053665493 -0.012247487 0.0015472518 -0.03753309 0.00043418555 -0.024198938
0.012959723 0.102506295 -0.32548377 1.184156 -0.007067469 -0.14896779 -0.09759696 -0.0033579574
0.0012312757 -0.04467866 0.0052492116 -1.8589934 2.5015497 -0.00597121 -0.00061466586 0.03118003
-0.0069438247 0.004792552 -0.012982302 -0.013142533 -0.26937804 -0.022026729 -0.08865656 -0.08967518
-0.13106549 0.0009745366 -0.008453661 0.00856457 0.0012054116 0.0014710044 -0.0007550934 0.0021516178
0.1334655 -0.014097324 -0.0061209407 0.00948948 -1.527634 0.2496547 -0.0133828325 -0.6586022
-0.024960032 0.4314331 0.0021848318 -0.009513813 -0.00044141547 -0.004578188 -0.00719131 -0.010387541
0.0103452075 -0.011580298 0.017221313 0.09398329 0.0235948 0.36332655 1.5288192 0.32150206
0.012611979 0.13086997 1.0776197 0.00092604314 0.003405086 -3.4574761 -0.021294069 -0.07058737
0.03833057 0.0005458108 -0.0043847878 0.04739512 -0.01715242 -0.004044107 -0.017527008 0.03907875
0.22477287 -0.019506348 0.6105588 0.3404003 -1.7093656 6.509414e-05 0.011340506 -0.0086221015
-0.031737745 0.005539534 0.018031823 -0.002255763 0.12458447 0.016830731 0.01229058 -0.048784614
0.22057688 0.013815539 0.020878404 0.2321651 0.0139596425 0.51503557 0.009908131 0.0016171272

encoder.4.bias f4 [44]
00000000: b9af 84be 8def 27c0 8c3f f9bd 44f7 22bf
00000010: a7a5 04bf 1d35 b5bf 391d 223f eba8 f93e
00000020: 9b94 cfbe 9949 3ac0 412c b73e ee68 0dbf
00000030: 1bee babf 532f dbbf b844 6ebf 4964 2ac0
00000040: f785 03be 6d7e 14bd 197b fdbe 3fc1 26c0
00000050: 4f89 42c0 6dc6 36c0 5f8f 13c0 bea2 36bf
00000060: 9663 d9be f510 2740 ca84 98be d779 eabe
00000070: 35c6 56bf d1c5 10c0 1f43 b3bf e130 d8bf
00000080: 6392 27c0 2634 e2bc 24c2 03bf 05ec 36c0
00000090: 3618 39c0 06e5 0ec0 c284 01c0 044d 9dbe
000000a0: e8eb 083f 0485 ffbf 228b 10c0 31e4 86be
-0.25915316 -2.623996 -0.12170324 -0.6365855 -0.51815265 -1.4156834 0.6332584 0.48761687
-0.40543064 -2.910742 0.3577595 -0.55238235 -1.4603914 -1.7123817 -0.93073606 -2.662371
-0.12844072 -0.03625338 -0.4950798 -2.6055448 -3.0396307 -2.855861 -2.3056257 -0.71342075
-0.4245879 2.61041 -0.2978881 -0.4579608 -0.8389619 -2.2620738 -1.4004859 -1.6889917
-2.6183097 -0.027612757 -0.5146811 -2.8581555 -2.8921027 -2.2327285 -2.023728 -0.3072282
0.53484964 -1.9962468 -2.258492 -0.2634597

encoder.6.weight f4 [32, 44]
00000000: e44c b53a c52e bd3c 5798 a63b db04 cbbe
00000010: 6661 513d e6c5 16bb d9b8 a93b 309b 893a
00000020: c9e3 41bd af8f 053e 5f87 45bb 47ad d23e
00000030: afbe 073e e873 9b3d e963 173b 9153 97be
00000040: edff 6fbb 3611 b53e 846a 63ba 19dd 3e3e
00000050: 45f9 0b3e b124 5b3e bbee 323e 48b3 faba
00000060: c3f3 88bb 50c9 41ba 6f27 9839 53cc eeba
00000070: de11 edba 6d02 f23e 54ac 4db8 7dcf 6dbc
00000080: 2956 463e ffe1 8e3b 778a 1f3c 9524 df3e
00000090: 9f3d 52be 1b8b 003e bbd1 023e 97f4 483b
000000a0: 4f32 903b cfe7 f33c e2b2 75bf 089f d83a
000000b0: 0008 ec3e 4e9d 683f be10 6cbe 261d 7abe
000000c0: 2a3a 17c0 f667 9c3e 67f2 5cbf 2321 c6bd
000000d0: fea8 df3e 0234 ab3f 448b 1cbf e30b 94bd
000000e0: 7332 033f 86f3 563f 445a 123b c87c b73f
000000f0: 402f 9f3e 617c 5bbe c986 33bf fe60 e23f
00000100: 9e62 ae3f ec94 af3f c6be 213a 24d1 9c3d
00000110: 48ef f83d 8628 52be 66d2 183d bf1d 543e
00000120: 6c74 84be 8438 b93f c5ee 2bbc 336a 06c0
00000130: 6a9c a03f 8829 f8bd 838f 3f3e 8afd bf3f
00000140: c86b be3f 6adf 8e3f 06ea ab3f c2e2 71bd
00000150: 5b8c 593f b751 ab3e e24f b73f c6af 18bf
00000160: 4bb8 9ebd 0e46 97bb 307f 9d3b 2b6c 0a3c
00000170: 2b78 463a 223b 39bb 7bd4 1bba aa43 ecba
00000180: f905 1d3c 35f4 0c3d 02ee f53b 51b1 7b39
00000190: bf9a 473e 84e8 1d3c 0a8d 943b e898 853c
000001a0: b658 cf3e 2e17 1a3c fd43 18bb 17ed 053d
000001b0: 7f5e 9e3d 2ce7 aebe db0d 9f3d 0dda 793a
000001c0: 8aad f33b 54c9 ef38 6296 033a 8978 913b
000001d0: 8010 06ba c459 5abc b959 423b 9516 ec3a
000001e0: 2599 7fbe 576e 0fbc 2523 04be 2f14 b8bd
000001f0: 99e0 1fbd 7712 c73d fa4e a8bc a029 413f
00000200: bb36 133c 36ca 43bc 7711 903d 362d acba
00000210: 10d4 d8be c623 303f e5e6 24bf e8c7 1fbf
00000220: 98a7 0fbf 9b09 d23d 7e82 69bf 48b1 713e
00000230: e611 15bd 184a 843f 71ba 86bf ad00 b9be
00000240: be51 3a3f d52c c93e 8704 063e c7b4 1f40
00000250: c27b d4bd 21fe babe 8b53 503f 437c 1c40
00000260: 00da c73f f023 b63f 7181 913f 5b80 173e
00000270: be41 7e3d 8c7c 41be 8641 50be 600a 3f3e
00000280: cd5f ae3d 5710 e83f b520 823e 84b0 7d3e
00000290: 001d cc3f 32fc f4bd 7352 96bd 9658 d33f
000002a0: 0b6e 1040 4ee9 b23f 8813 a53f 5a38 1abf
000002b0: 1ef5 8a3f 457a 9bbb ecdc 2140 4971 e6be
000002c0: ec35 0cbc fdf5 4a3c 0f31 5b3f 7a3c d4ba
000002d0: 9645 bf3a 34d5 3837 11a5 b13a f390 073c
000002e0: 9407 983b e0bc 0e3e 7549 ebbb 2ed0 73bb
000002f0: 5a9d 533e 7e11 99bb e6d2 243c c4a3 5d3e
00000300: d0cd 883b 6241 2bbc d662 843a dfbe 77bd
00000310: e81d 733e a4c0 be3e 2094 643e 6593 20c0
00000320: 77ce 77bc d8c8 9aba 5e68 693c 2514 8cbc
00000330: 5bd9 86bc 1a27 6a3e 3dbc 8c3c 94c8 eb3c
00000340: c5b4 8e3c 0d53 0a3b c53b e9ba 1558 c6bd
00000350: 74cd 783e 4c44 8b3e f66c 7f3e 6937 853b
00000360: 557c 76bb 20b3 8a3c 4ac9 513e e711 d5bb
00000370: 065b 58bb e7ef de3c b616 8bbf aeea 453b
00000380: 31b7 c93c e26b dfbb f543 bfbb cd87 3c3b
00000390: 3890 70bb 97d3 f63d c6a4 0fbc 2da5 c3bc
000003a0: cf76 603e 9da3 9c3d 89fb 683c 4212 b13e
000003b0: 9996 d739 ab2f f6ba 6cfd c8ba 1542 fc3d
000003c0: 58ea 983e c57a 2cbe 4b6f 433e 4814 7e3f
000003d0: 7940 313c ce14 f23a baf4 133e f889 bf3a
000003e0: 1399 6ebb c0f6 9e3e 8410 243e e514 a5bc
000003f0: 4768 083f a44d 98bc d732 b73c 8b91 093f
0.0013832119 0.02309359 0.0050840783 -0.39652142 0.051118277 -0.002300614 0.0051795063 0.001049852
-0.047336373 0.13043092 -0.0030140502 0.41147825 0.13256334 0.07590467 0.0023100323 -0.29555944
-0.003662105 0.35364693 -0.0008675235 0.1863903 0.13669308 0.21400715 0.17473881 -0.0019126916
-0.0041794493 -0.00073923636 0.0002902108 -0.0018218852 -0.001808699 0.47267476 -4.90363e-05 -0.014514801
0.19368805 0.004360437 0.009737602 0.43582597 -0.20531319 0.12553065 0.12775318 0.0030663365
0.0044005285 0.02977362 -0.9597608 0.0016526887 0.46099854 0.9086503 -0.23053262 -0.24425182
-2.362925 0.30548066 -0.86307377 -0.09674289 0.43683618 1.3375247 -0.6115 -0.0722883
0.51248854 0.8396534 0.0022331635 1.4334955 0.31090736 -0.21434166 -0.7012754 1.768585
1.3623846 1.3717322 0.000617009 0.07657078 0.12155014 -0.20523271 0.037310027 0.20714472
-0.25870073 1.4470372 -0.010493939 -2.100232 1.2547734 -0.121172965 0.18707089 1.4999249
1.4876642 1.116193 1.3430793 -0.059054144 0.8497979 0.3346078 1.4321253 -0.5964321
-0.07749995 -0.0046165055 0.0048064217 0.008448641 0.0007571007 -0.0028264006 -0.0005944443 -0.0018025537
0.0095839435 0.03441258 0.0075051794 0.00024003281 0.19492625 0.009637956 0.0045334147 0.016308263
0.4049737 0.0094049405 -0.0023233884 0.03269681 0.077328674 -0.34160745 0.077663146 0.0009531088
0.007436459 0.000114339084 0.0005019662 0.0044394177 -0.0005114153 -0.013327066 0.002965553 0.0018012101
-0.24960764 -0.008754334 -0.12904032 -0.08988225 -0.039032552 0.09720319 -0.020545471 0.7545414
0.008985217 -0.011950066 0.07034581 -0.0013136033 -0.4234929 0.68804586 -0.6441482 -0.6241441
-0.561151 0.10255738 -0.9121474 0.23602784 -0.036394022 1.0335112 -1.0525647 -0.36133328
0.7278098 0.39292017 0.13087665 2.4954088 -0.103751674 -0.3652201 0.81377476 2.4450843
1.5613403 1.4229717 1.1367627 0.14795057 0.062074415 -0.18895167 -0.20337495 0.18656301
0.08514366 1.8129987 0.25415578 0.24774367 1.594635 -0.11962165 -0.07339945 1.6511409
2.2567165 1.3977449 1.2896585 -0.60242236 1.0856054 -0.0047448003 2.529109 -0.45008305
-0.008557778 0.01238775 0.8562173 -0.001619234 0.0014592882 1.1016895e-05 0.0013553222 0.008274305
0.0046395753 0.13939238 -0.0071803876 -0.0037202942 0.20665494 -0.0046712747 0.010060048 0.21644503
0.0041749254 -0.0104526 0.0010100256 -0.060484763 0.23741877 0.37256348 0.2232213 -2.5089962
-0.015124909 -0.0011809124 0.0142460745 -0.01709945 -0.016461065 0.22866479 0.017179603 0.028782167
0.017420182 0.002110663 -0.0017794302 -0.09684769 0.24297124 0.27200544 0.24943909 0.0040654433
-0.0037610729 0.016931117 0.20486942 -0.0065023783 -0.0033013239 0.027214004 -1.0866306 0.0030199694
0.024623485 -0.0068182806 -0.0058369585 0.0028767467 -0.0036707055 0.12052076 -0.008767312 -0.023882473
0.21920322 0.07648394 0.014220127 0.34584242 0.000411202 -0.0018782517 -0.0015334315 0.12317292
0.2986629 -0.16843708 0.19085424 0.99249697 0.010818594 0.0018469335 0.14448825 0.0014613261
-0.0036407157 0.3104763 0.16021925 -0.020151565 0.53284115 -0.01859171 0.02236311 0.53737706

encoder.6.bias f4 [32]
00000000: 8551 2dbf fe25 c6bf 462e ef3e bc04 9dbf
00000010: 3a9e 093e 4ae0 15bf 1026 893d 1471 13bf
00000020: 070a 9dbf c08f 1a3f 4c05 c8bc 1274 853d
00000030: e14c 10bf 2397 42c0 73e8 973e 1c6b c9bd
00000040: 00bc 4ac0 6871 12c0 9892 2ac0 4852 26c0
00000050: a63f e0bd 161a 39bf 3277 6abd 25bb d4bf
00000060: e615 c6be 0d33 5ebf b451 34bf 15bb a6be
00000070: b6c4 e1bf 3a5e 15be 92b0 e3be 14dc b7be
-0.67702514 -1.5480344 0.4671499 -1.226707 0.13439265 -0.5854536 0.06696713 -0.5759442
-1.2268685 0.60375595 -0.024416588 0.06516279 -0.5636731 -3.0404747 0.29669532 -0.098348826
-3.1677246 -2.2881718 -2.6651974 -2.598772 -0.1094964 -0.7230543 -0.05724258 -1.6619612
-0.38688582 -0.8679665 -0.7043717 -0.32564607 -1.7638156 -0.14586726 -0.4447065 -0.35910094

encoder.8.weight f4 [24, 32]
00000000: 3af8 90bf 0fff 063f 4383 12bf 1a1d 813f
00000010: f8b8 cf3d 0feb b6bc c17d 35be 6d89 b9be
00000020: 06f3 6a3e af6b 0cbe 8de0 91bf 9808 35be
00000030: f83f 1dbe a3f6 8f3f c6ed 7d3d 99c8 d6bd
00000040: 3262 a63f a27b aa3f bc63 c73f a8b0 903f
00000050: 6305 babe 9af6 2dbe cadf d63e ddd3 813f
00000060: 10fc 29be 5a45 373e 3813 d73d 13a5 8f3e
00000070: 4f94 ef3e 46a4 cebd 4dad 44be 79af 1abe
00000080: dc05 873c 28dd 2f3d c89b 8f3b 8954 713e
00000090: ba9e 1d3f ca2c 0cbf e167 653b 469f 083b
000000a0: ba5c 4f39 ee1b f1bb 846c 10bb 2537 ef3b
000000b0: c3fd 3e3c 38c8 693e b380 dc3c 4049 013a
000000c0: 21e5 4b3e 61ec 523e f187 ac3e ecd6 7d3e
000000d0: a186 c93b a538 013b 665e 8c3b 9d10 953e
000000e0: b7eb ea3a 32d9 083b bc1d 02bd bb10 263c
000000f0: eaa1 173d 8bb2 cb3b df87 563c af06 293c
00000100: 5487 06ba b0a1 bbbd f7c9 44be ac30 bbbe
00000110: 1c0f cf3b 0c33 ddbb f0e4 2b37 aad6 e7bb
00000120: ae51 8e3a 5f68 8cbe d8c2 1fba def1 60ba
00000130: 0078 113c 88ea acbe 737e 1e3b 2cfb 1ebb
00000140: 8e81 0ac0 e8d6 84be 9479 55be 9685 9ebe
00000150: 5a6d fd3e d648 5dbb 72ee 343b 523c 6cbe
00000160: 527f 8bbb b0a3 d7ba 5e4b 15bb 366a 043d
00000170: 9dea ddbd b6eb c63b 4258 483b b896 b438
00000180: 568c ec3d 0caf ef3e fa8b bebd 7555 3a3f
00000190: a90a 90c0 304e 18bf 7339 c6bd 9c11 803d
000001a0: 569b ac3d 18e9 b5bc 5e7b 43bb d588 6a3c
000001b0: d7cf 113d 1525 413f 8b43 24be 5783 9cbd
000001c0: 9f0f 443f cbef 463f 6f80 273f 437b 393f
000001d0: ebdb 20bd da00 6c3d d48f 41be c951 423f
000001e0: 8919 673b 9302 d0bc 7668 2bbf b939 9b3e
000001f0: 95f1 f13e c299 11bf 4205 923d 5918 cebd
00000200: ccef 6fbb 8a22 59be bbff f13b a1b7 ffbf
00000210: 3f13 82ba cca2 2a3a 6e5d df3c 4785 0f3f
00000220: c32f dc3b 7019 1d3b dfff 23bf e785 3f3c
00000230: 501b 9b3b d256 9abe a1bc 023c 3258 013c
00000240: 14e9 90be 6cb1 f4bd e021 95be bf19 a1be
00000250: d8e3 be3b 64c0 c03c f650 00bc b4ba a1be
00000260: c5ce cdb9 c53e 783b 4bb7 32bb 5a3a 633c
00000270: 342b 60be d71b c43b 58ab abba c279 0abc
00000280: 2579 433c 4cf0 e9bc 3e1d e2bc 64ee dd3d
00000290: fe7b 003c bc2c 543b ea95 033c 6114 c63a
000002a0: 6fb2 993e 7a5f 103c 0f72 8fbb 4ef4 33bb
000002b0: 5988 233d 82e0 d53d 6e57 fa3b 0218 333f
000002c0: 1cb6 a53d a833 953e ac02 bb3e b64b 0c3e
000002d0: 5772 02bc 4c66 15bc fdc1 3f3c 18f6 2b3e
000002e0: 54c6 9fb9 2f90 d43e 4fc4 2cba a645 de3c
000002f0: d07d 3dbd 27aa 97bb 7b42 173b 0574 37bb
00000300: 2093 8ebb d329 b73c 6c42 7b3c 01dd 2a3e
00000310: 93f2 afb9 247b a93b 859a bb39 ae68 113b
00000320: d8bc d3bc a44f a4bc c660 96bb f514 e23b
00000330: 1a01 48c0 db79 993d 6dc3 58bb 2370 2d3d
00000340: 5e21 103d 87b5 513e b502 0b3e 66d5 803d
00000350: 8b86 09ba 6289 26bb e30e 5cba 8db4 f23d
00000360: 34c4 5a3b 2333 d03b f99a 88ba 09f1 d13f
00000370: a2ac 483d 3de3 6ebb 98c7 ccbb 151e 2abc
00000380: 70b4 243c 8894 87bd 4fbb 203c 0366 d3be
00000390: f2a0 dbbb 9f75 813b 3179 6b3b c686 02bb
000003a0: b39d d9b9 5212 81bc 848e 28b8 768a 013f
000003b0: 385a f33b 0b2f d8be 2304 163b addd 973c
000003c0: 238d b0be 2393 77be 998c 7bbe 6ec4 acbe
000003d0: b736 9f3c 2021 97bb b7db bdbb f332 2ebe
000003e0: b165 2abb 7df8 a039 3eb8 5f3a 6ea7 9cbc
000003f0: 79b8 93bd e877 24bb 6539 48bb c9b1 c2be
-1.1325753 0.5273294 -0.5723154 1.0087006 0.10142702 -0.022328882 -0.17723753 -0.3623766
0.22944269 -0.13712953 -1.1396652 -0.1767906 -0.15356433 1.1247143 0.061994337 -0.1048748
1.2998717 1.331898 1.5577312 1.1303911 -0.36332235 -0.16988602 0.41967613 1.014278
-0.1660006 0.1789755 0.105017126 0.2805563 0.46792838 -0.100899264 -0.19206734 -0.15106
0.016482286 0.04293552 0.0043825842 0.23567404 0.6157032 -0.5475584 0.0035004544 0.0020846887
0.00019775602 -0.007358066 -0.0022037337 0.007300275 0.011657181 0.22830284 0.026916837 0.00049318746
0.19911624 0.20597984 0.33697465 0.24789017 0.006150082 0.00197176 0.004283714 0.29114237
0.0017923032 0.0020881412 -0.03176664 0.010135825 0.037019648 0.0062163523 0.013093918 0.010316535
-0.000513186 -0.09161699 -0.19217668 -0.3656057 0.00631894 -0.00675047 1.0245698e-05 -0.0070751505
0.0010858083 -0.2742338 -0.00060944026 -0.0008580963 0.008878708 -0.33772683 0.0024184256 -0.0024258597
-2.1641574 -0.2594521 -0.2084716 -0.30961293 0.4949749 -0.0033765337 0.0027607945 -0.23069885
-0.004257121 -0.0016451981 -0.0022780518 0.032327853 -0.108357646 0.0060705794 0.0030570184 8.6111424e-05
0.115502045 0.46813238 -0.09304042 0.7278665 -4.5013013 -0.59494305 -0.09678926 0.06253359
0.084280655 -0.022205874 -0.0029828171 0.01431485 0.035598602 0.7544721 -0.1604139 -0.076422386
0.76586336 0.77709645 0.6543035 0.7245371 -0.03927223 0.057618 -0.18902522 0.75906044
0.0035263023 -0.025391852 -0.6695627 0.30317476 0.47254625 -0.5687524 0.07129909 -0.10063238
-0.0036611436 -0.21204582 0.007385222 -1.9977914 -0.0009923949 0.0006509244 0.02726623 0.5606274
0.006719561 0.002397146 -0.64062303 0.01168964 0.0047334805 -0.30144364 0.007979543 0.007894563
-0.28302824 -0.11947903 -0.29127407 -0.31464955 0.005825501 0.023529239 -0.007831803 -0.31587756
-0.00039254702 0.003787921 -0.0027269896 0.013868893 -0.2189148 0.005984764 -0.0013097329 -0.008451881
0.011930739 -0.028556965 -0.027601834 0.10836485 0.007842062 0.0032375297 0.008031348 0.0015112275
0.30018947 0.008811826 -0.0043776105 -0.002745885 0.039924953 0.10443212 0.007639817 0.6995851
0.08091375 0.29140973 0.36525476 0.13700756 -0.007961831 -0.009118628 0.011703965 0.16793096
-0.0003047461 0.41516253 -0.00065905316 0.02713282 -0.046262562 -0.004628438 0.0023080397 -0.0027992737
-0.0043510348 0.02235881 0.01533566 0.16685869 -0.00033559333 0.00517215 0.00035782545 0.0022187638
-0.025846884 -0.020057507 -0.004589173 0.006899471 -3.1250672 0.07493945 -0.0033075467 0.04234327
0.03518807 0.20479403 0.13575251 0.062907025 -0.0005246184 -0.0025411476 -0.0008394552 0.118508436
0.0033381106 0.006353752 -0.0010422162 1.6401683 0.04899276 -0.0036451363 -0.0062493794 -0.010383149
0.010052785 -0.06620127 0.009810283 -0.41288766 -0.006702536 0.003950789 0.003593039 -0.0019916757
-0.0004150696 -0.015755806 -4.018705e-05 0.506019 0.0074265264 -0.4222339 0.002289065 0.01853832
-0.3448268 -0.24177222 -0.24565352 -0.33743614 0.01943527 -0.004612103 -0.0057940143 -0.17011623
-0.0026000554 0.00030702716 0.0008534229 -0.019122805 -0.0721292 -0.0025095884 -0.0030551788 -0.38026264

encoder.8.bias f4 [24]
00000000: 4802 e6bf 054c 15be 6c75 f3bd 48fb bfbf
00000010: 9444 d33e a35b 07be 92a6 abbe 6c33 b53e
00000020: 56de 16bf ae17 b2be f0ad c83d 04e4 bebe
00000030: 52a0 60bf 6968 b7be 9f54 00be a484 43bf
00000040: d0b8 26c0 1fb4 edbe 760d 5a3e 0b29 b4be
00000050: 993a b9bd dedd c9be 2271 80bf eb99 fdbd
-1.7969446 -0.1457978 -0.11887631 -1.499856 0.41263258 -0.1321855 -0.3352552 0.35390794
-0.5893301 -0.3478369 0.09798801 -0.37283337 -0.8774463 -0.35821846 -0.1253228 -0.7637427
-2.60503 -0.46426484 0.21294197 -0.35187563 -0.0904438 -0.39427084 -1.0034525 -0.12382873

encoder.10.weight f4 [16, 24]
00000000: c12e a6be 60ba 433b 7f85 703c db6d dc3a
00000010: e174 9b3a 5c9e afbb 5c8c 78bc ec7a fcbe
00000020: d096 863b 9b50 86ba c723 653c f00f d43b
00000030: a84a 0439 0b50 02bb de39 923b 39a6 e93b
00000040: d77b d6be 8664 a13b fc68 053c c70d ffbb
00000050: d37a 533c 3fc6 ec3b 39a3 1f3a 48df 62bc
00000060: a116 943e e549 82bb 4da9 ad3e 21fb e63c
00000070: 7821 0c3b aef8 9939 580f 26bc f1ac bf3b
00000080: 478a 15b9 1970 1d3b 5051 2abb 29ff a23e
00000090: dc40 423b ea18 85bb e5d5 59bb fa54 0bbb
000000a0: d143 913e 2c9f e83b 9304 7eba a80c 62be
000000b0: 1db6 dcbb b95e a3ba e8d4 beba 3e6c b53b
000000c0: ca60 633f dbc0 1f3b 4275 f1bb 5a00 203f
000000d0: a856 00bc fc6e 713c ee7a 83bc b836 e6ba
000000e0: e7a3 243c fd0a daba c21b 41bd b140 f8bb
000000f0: f2f6 9abf 14cd 923b 58d9 6e3c ddd6 0e3b
00000100: 6fa0 763f 85de 813c 3727 023f a933 5e3c
00000110: 8378 a93c 9914 223c 9e7a 2b3c c86a 953d
00000120: abd1 213f 7b70 ab3b ec9e 173c 4acb b23a
00000130: 8e1e 923a 62ad 6cbb 8e88 6abf 69e1 ec3c
00000140: 789a 3b3a ff9a db3a 004b 6fbb f7e9 e4bc
00000150: 61fe fab9 9d85 dabb 1bf8 1a3c 5476 0d3c
00000160: 53dd 523f 7d85 153b d2a2 813b 293f 31bc
00000170: 7ea7 8c3e b12f ee3b 49dd f23b 2e10 fd3a
00000180: ab4a 873f dd93 90bf e058 81bc 306f 15bd
00000190: 9f9a 023c a800 0b3c 578b 933b f194 d0bc
000001a0: 1675 ecba ea18 1bbc d6e7 4cb9 e9e3 a1bc
000001b0: bbc0 acbc 0029 dc36 b66c 683d ccb9 9ebb
000001c0: 9791 8b3f d247 4fbb 294d 98bb c251 dcbc
000001d0: ddd1 e93c 0c77 99ba f612 d6ba c254 083f
000001e0: 8d57 793e 2120 c33a 8ac3 353b 97f2 173b
000001f0: 1e5d 763b 9e1c 74be e172 febb 8d4b 9ebb
00000200: abcc 62bb e4ff 9fbb c312 81bb 115c 143c
00000210: 3823 ecb9 eba6 8d3b 99a4 303b c02d 233f
00000220: 1282 c13e 35a3 9a3a 3aa2 203a 3c32 513b
00000230: 3e29 7ab9 86f6 1c3b 50b3 67ba 3a15 56ba
00000240: 65ae c83f 71a6 6abb f221 b4bb 6e1d 303d
00000250: ea29 403f 6fe0 7abc fd33 29bc 48c2 dabc
00000260: 243c 7d3c 75ad e8bc 2d55 59bc b9db b2bc
00000270: e2d5 4cbc 1a52 d2ba d4f7 74ba 8e3a 9a3b
00000280: 3904 9c3f 6ac2 39bd a8c0 0dbc 86c8 f6ba
00000290: 8b06 8ebb 0f57 a5bb 0cbc 91bc ff24 32bc
000002a0: ac6d 423f 8209 e03e ac56 ecbb e39a 8eba
000002b0: 8f74 4bbb bf3c 013b 04b2 b03b 8e03 53bb
000002c0: 3a34 f83a 0065 25bc bca8 b63b 4dfa 4abc
000002d0: 8e58 b7bb 64c8 8d3b 9e8c f73c 0c5f cabb
000002e0: 848f 453f 5270 d0bb 13a0 40bd fd09 04bc
000002f0: ea46 753c cff9 aeba 299f 8abb 2e01 acbf
00000300: b356 3c3f 64a7 0c3c 640b 87bc 0539 753c
00000310: dd21 8ebb 3abe b6ba 6ff2 38bb 0b33 cebc
00000320: 4227 eb39 6903 1bbc 6e72 2fbc 88d9 0839
00000330: d406 3bbb 7d4b 92bb 416a e93b 1032 0bba
00000340: 0e15 793f 4073 143f e5ef 8b3a 73a5 893b
00000350: 121d 7abb 49fc b2bb b620 e43a 7879 9f37
00000360: 6edc 4d3f f764 013b 9f21 92bb 3b8e 433b
00000370: 2145 8c3b 3182 88bb 34c3 2c3b a72b 04ba
00000380: 3cb2 ce3b 38ab 173c bce3 863a 775b 203b
00000390: 5db3 16bb 86a2 d63e 22f9 373b 3741 1ebb
000003a0: c749 a83e efcd 073d f60a a03b 765a e23a
000003b0: 82f9 62ba 266d 863e 71ff f4be d9a3 1dbb
000003c0: 9e11 813d 6cd4 16bc 44ae 9dbb c8a3 473c
000003d0: d681 f539 5500 833a dab3 173c 3303 46bb
000003e0: 7a43 df3a c209 28bf dceb d13c c801 27bb
000003f0: c191 153d 5d2c 4bbc a230 d53e f0a8 1fba
-0.32457545 0.0029865727 0.014680265 0.0016817407 0.0011860394 -0.005359454 -0.015170183 -0.49312532
0.0041073337 -0.0010247411 0.013985581 0.0064716265 0.00012616313 -0.0019884135 0.0044624647 0.007130411
-0.41891357 0.0049253134 0.008142706 -0.007783625 0.012907702 0.007225781 0.0006089691 -0.01384718
0.28923514 -0.003976094 0.3391823 0.02819592 0.0021382254 0.00029367715 -0.010135494 0.0058494736
-0.0001426126 0.0024023114 -0.0025988407 0.31835297 0.002964071 -0.004061808 -0.0033239063 -0.0021260367
0.28372052 0.007099053 -0.00096900127 -0.2207514 -0.006735577 -0.0012464143 -0.0014559301 0.005536585
0.88819563 0.0024376425 -0.0073687145 0.62500536 -0.00783316 0.014735933 -0.016049828 -0.0017563915
0.010048843 -0.0016635355 -0.047145613 -0.007576071 -1.2106612 0.0044800136 0.014578186 0.002179555
0.9633855 0.015853176 0.5084109 0.013562121 0.020687347 0.009892606 0.010466246 0.072957575
0.6321055 0.0052319146 0.0092541985 0.0013640907 0.0011148022 -0.0036114086 -0.91614616 0.028916078
0.00071565015 0.0016754566 -0.003651321 -0.027943594 -0.00047873243 -0.00666876 0.009458567 0.008634169
0.82368964 0.002281516 0.0039561773 -0.010818281 0.27471536 0.007268869 0.007411633 0.001930719
1.0569662 -1.1295124 -0.01578945 -0.03648299 0.007971435 0.008484043 0.0045026946 -0.025461646
-0.0018040265 -0.009466389 -0.00019541322 -0.019761996 -0.021087995 6.561284e-06 0.0567443 -0.004843926
1.0903805 -0.0031628502 -0.00464787 -0.026894454 0.028542453 -0.0011708452 -0.0016332555 0.5325433
0.24349804 0.0014886894 0.0027734959 0.0023185366 0.0037592123 -0.23839042 -0.0077651595 -0.0048307837
-0.0034606855 -0.0048827995 -0.003939004 0.0090551535 -0.00045039668 0.0043228767 0.0026953577 0.63741684
0.37794548 0.0011797907 0.0006127689 0.003192081 -0.00023857222 0.002395065 -0.00088386703 -0.0008166615
1.5678221 -0.0035804773 -0.0054972107 0.042996816 0.75063956 -0.015312298 -0.010327336 -0.026703969
0.015456233 -0.028403023 -0.013264936 -0.021833288 -0.0125021655 -0.0016046197 -0.00093447906 0.0047066873
1.2188789 -0.045351423 -0.00865189 -0.0018828071 -0.004334276 -0.0050457786 -0.017789863 -0.010873078
0.75948596 0.43757254 -0.0072124805 -0.00108799 -0.0031044816 0.0019720045 0.005392315 -0.0032198164
0.0018936463 -0.010094881 0.005574314 -0.012388778 -0.0055952733 0.004326867 0.030218419 -0.0061758813
0.7717211 -0.006361046 -0.04702766 -0.008059022 0.0149705205 -0.0013349595 -0.004230399 -1.343786
0.7356979 0.008584831 -0.016484924 0.014967208 -0.004337533 -0.001394219 -0.0028220674 -0.025170824
0.00044851942 -0.009461262 -0.0107084345 0.00013051007 -0.0028538005 -0.0044645653 0.007123262 -0.0005309889
0.9729775 0.5798836 0.0010676353 0.0042006313 -0.00381643 -0.0054622036 0.0017404768 1.901084e-05
0.80414474 0.0019744018 -0.0044595744 0.0029839415 0.0042807017 -0.0041659107 0.0026361467 -0.0005041905
0.0063078683 0.00925713 0.0010291259 0.002446858 -0.0022995092 0.4192087 0.0028072079 -0.0024147758
0.32868788 0.033155378 0.004884119 0.0017269391 -0.00086583954 0.2625515 -0.47851136 -0.002405396
0.06302188 -0.009205919 -0.004812034 0.012185045 0.00046826777 0.0009994606 0.009259189 -0.003021431
0.0017033659 -0.6563989 0.025625162 -0.002548324 0.036515955 -0.012400714 0.41638666 -0.00060905423

encoder.10.bias f4 [16]
00000000: 4b04 233d b827 7fbf 0ea1 23bf e62d 38bf
00000010: 5e2a d3bf 2031 62bf f475 f6bf cf82 9cbf
00000020: 8b98 83bf 4126 01bf 0182 fbbe 55df 3dbf
00000030: c1e6 92be a91f 36bf 0cef 6bbf 5cf1 6cbf
0.039799016 -0.9966998 -0.63917625 -0.71945035 -1.6497304 -0.8835621 -1.9254746 -1.222742
-1.0280927 -0.50448996 -0.49122623 -0.741689 -0.28691676 -0.7114206 -0.9216163 -0.92555785

decoder.0.weight f4 [24, 16]
00000000: cce8 31bd 4538 ad3c ad94 bbbb 8ede 4cbd
00000010: 4d25 a0bb a4cb e6bc 8129 bf3f 193b ddbb
00000020: c4c3 513c 5f1f 91bc 2e57 8bbc c331 aa3b
00000030: afdb 24bd d43e 63c0 8506 74bd 0c81 de3c
00000040: 1a26 adbd a3c9 b9bd 862d 44bf fbaa acbc
00000050: 8c9a 00be f6eb 38bd aae9 5cbc 07f6 ab3c
00000060: d035 a43b 31fb a6bd b80c 0f3f 31e7 8bbe
00000070: 7221 fbbd 9bc7 31bc 869e 97bc c5a1 063f
00000080: 665e 76be fe8a 0e3f a8f6 16ba 1493 b6bf
00000090: 174e 7fbd 664b 843c cf49 a6bb 18ba f9bb
000000a0: 42ba 6bbb b806 243c df26 c8bb 4622 8b3b
000000b0: c195 993d e803 5abb bd09 0dbf a3cd 45bc
000000c0: c11e 8d3c c749 93bf 2ccc bb3c d19a 063e
000000d0: 90f6 453c 93e5 8f3c eb28 2bbb a8e3 543c
000000e0: 0d65 2c3d 384c b33c 0870 943c 5d92 ed3b
000000f0: 5c01 833d ca40 13bb 7f76 aabf 7af9 7b3d
00000100: 7dc7 5aba 5221 38bb a1e5 68bc b494 ffbc
00000110: b336 a1bc 7d1a 3ebb 84bf 1c3b 7486 8ebc
00000120: 82e0 fabb cf7d 00bc 3808 17bc 5485 31bb
00000130: ae57 603b 600c b0bb 2ea9 1ebc c332 d9ba
00000140: 24c9 823d 418f c53c c47a 3c3d b02b 3a3d
00000150: abae 3cbc bf9d 33bc 5b11 9cbc a784 e93b
00000160: 7b0f d23d 9187 1bc0 732b b3bc ac10 0e3c
00000170: 9d02 4bbf 5616 febc 0b80 cfbc 9dcb 7e3b
00000180: 2c32 843c f5f4 713c 745a 54bc 1e48 59bc
00000190: be89 fd3c 8ca6 dc3b c64c 0e3b 8dc6 ee3c
000001a0: a9c4 da3a 4b78 b6bb 4f5a a73c 8c61 f7bb
000001b0: 476d 543c f5fa 603b 7466 62ba 6b91 d93b
000001c0: 93a6 e63c c3c4 203e fe97 f0b9 a368 313e
000001d0: 14aa f8bc 1c70 dc3a 197d a9bc ce07 acbb
000001e0: b2d5 1fbd 22f3 653d da41 183f 5925 903e
000001f0: 963e 83bb 852c 3abc 4f8b 10bd 7002 ad3f
00000200: 4671 c3bf 3c90 d93e b97d a8bb 0919 a63e
00000210: f221 94bd 6898 423c b355 e83b 3738 973c
00000220: e45e 7e3d 7434 87bc a7c0 c83c d63b c2bb
00000230: 9e83 0e3d ecf7 e5bb 410a b0be bf51 583c
00000240: 70d2 173e 4aaa 0a3e 08d5 9c3c 457e fc3d
00000250: 1e7c ee3a 9dfb 1d3a 8cab c23c 47c5 9fbb
00000260: fd02 30bc 479c 40bf 9954 7f3c 9f7b 03ba
00000270: 5298 c53f f4f0 1fba 1ad4 b3bd 6de6 f53b
00000280: 95a2 0e3e c9e7 683f f49e dd3b e0b4 103f
00000290: 6c50 9abc 86e6 0e3b 5aa6 42bc a89b 903a
000002a0: fbe5 50bd 28a0 6e3d 904b c4bc 8ede f5ba
000002b0: 3add af3d ab65 723b 1b3c 78bf 8a0a dbbc
000002c0: aedd b3be 2e33 16bf 823d 94bc 0548 d9be
000002d0: e8bc e8b9 8c1c 84bc dc16 423c 4710 25bb
000002e0: ee27 9d3d ac1e 96bd 4a16 abbc ea15 793a
000002f0: deed 4e3f 1e37 12bd 0c4e 113f 9bc1 603c
00000300: 67ab 453e 80e2 333e 2be0 303d b45d 013e
00000310: 6e2f a23c d969 243d 3a04 e03a 24e7 833b
00000320: 6b9c 56c0 9de6 1d3d 5c81 593d 8497 093d
00000330: 03d5 bb3d 784e bebc 4aa7 32bd ea2d 123d
00000340: 7491 39bc c903 183c 70ad fc3d 4025 a93c
00000350: 4dc6 a0bd 26c5 13bb ace6 aeba cc73 a53c
00000360: 9ab3 523c 8b30 043d 22b5 f73f 248e 97be
00000370: 4051 efbc be78 37bc 1920 4abc 787b 7fbf
00000380: 1a31 ef3b ce26 43bb 7872 f5bf a5a1 04bc
00000390: 9541 cabb 5d63 ff3a 6aa0 b0bc 59cc 8e3d
000003a0: 8484 01bb c99c ccba 5f60 b33d 4ce9 953f
000003b0: afde 15bc ab4f f3bb 7f23 bcba 1177 98bc
000003c0: 411b cbbe 4bc6 69be f384 53bc 4e8a 62bf
000003d0: 2077 47bd b427 a9bc 53d3 03bd 40ea 9c3d
000003e0: 03b8 3d3e 0ac4 7cbd 0a8a 4a3b f981 b43b
000003f0: cde0 abbe 13c0 04bc 0f39 3b3e 065a 9a3c
-0.043434903 0.021144995 -0.0057245106 -0.050016932 -0.004887259 -0.028173275 1.4934541 -0.0067514298
0.012803022 -0.017715154 -0.017009344 0.0051939203 -0.04024857 -3.5507097 -0.05957653 0.027161144
-0.08454533 -0.09071662 -0.76631963 -0.021077624 -0.12558955 -0.045146905 -0.013483444 0.020991338
0.0050112978 -0.0815338 0.5587878 -0.27324823 -0.122622386 -0.010850812 -0.018508207 0.5259059
-0.24059448 0.55680835 -0.00057588005 -1.4263635 -0.06233033 0.016149234 -0.0050747166 -0.007621061
-0.0035969173 0.0100113675 -0.0061081494 0.004246029 0.074992664 -0.0033266488 -0.55092984 -0.012072953
0.017226579 -1.150689 0.022924505 0.13144995 0.012082711 0.017565524 -0.0026116918 0.012993731
0.042088557 0.02188693 0.018119827 0.007250114 0.06396744 -0.0022469037 -1.3317412 0.061517216
-0.0008345766 -0.0028096032 -0.014214904 -0.031198837 -0.019679403 -0.0029007487 0.0023917863 -0.017398097
-0.007656158 -0.007842495 -0.009218268 -0.0027087526 0.0034231949 -0.005372569 -0.00968389 -0.0016570914
0.06386021 0.02411616 0.046015516 0.04545182 -0.011516253 -0.010962903 -0.019051244 0.007126409
0.10256859 -2.4301493 -0.021871304 0.008670967 -0.7930086 -0.03101651 -0.02532961 0.0038878687
0.016137205 0.014767875 -0.012961019 -0.013261823 0.03094947 0.006733721 0.002171324 0.02914741
0.0016690689 -0.0055685393 0.020428805 -0.0075494703 0.012965507 0.003432927 -0.00086364825 0.0066396496
0.0281556 0.15700059 -0.0004588961 0.17325072 -0.030354537 0.0016818079 -0.020689534 -0.005249954
-0.039022155 0.056140073 0.5947548 0.28153494 -0.0040052636 -0.011363153 -0.035289105 1.3516369
-1.5268943 0.42492855 -0.0051419404 0.32440975 -0.07233037 0.011877157 0.0070902943 0.018459423
0.062102214 -0.016504504 0.024505926 -0.005927543 0.03479349 -0.00701808 -0.34382823 0.013203084
0.1482637 0.13541523 0.01914455 0.123287715 0.0018194949 0.0006026568 0.02376344 -0.004875812
-0.0107429 -0.7523846 0.0155841345 -0.00050156744 1.543711 -0.00061012735 -0.087806895 0.0075042755
0.13929208 0.90978676 0.0067633335 0.56525993 -0.018837176 0.0021804883 -0.011880482 0.0011032717
-0.051000576 0.058258206 -0.023961812 -0.0018758343 0.085871175 0.0036986868 -0.96966714 -0.026738424
-0.35130066 -0.58671844 -0.018095735 -0.4243776 -0.00044391234 -0.016126893 0.01184627 -0.0025186704
0.076736316 -0.07330069 -0.020884652 0.00095018616 0.80831707 -0.035697095 0.56759715 0.013718034
0.19303666 0.17566872 0.043182533 0.12633401 0.019798007 0.040140007 0.0017091103 0.004025357
-3.353297 0.038550008 0.053101882 0.033591762 0.09171488 -0.023230776 -0.04361657 0.03568832
-0.011326183 0.009278246 0.12337768 0.020647645 -0.07850323 -0.002254793 -0.0013343892 0.020196818
0.012860203 0.032272857 1.9352152 -0.29600632 -0.029213548 -0.011198221 -0.012336754 -0.99797773
0.0072995545 -0.0029777768 -1.9175558 -0.00809518 -0.006172369 0.0019484569 -0.021560866 0.0697257
-0.0019762823 -0.001561069 0.08758616 1.1711822 -0.00914733 -0.0074252686 -0.001435384 -0.018611463
-0.3966923 -0.22829549 -0.0129101155 -0.88492286 -0.04869759 -0.020648815 -0.032183956 0.07661867
0.18527226 -0.061710395 0.0030905032 0.005508658 -0.33569947 -0.008102435 0.18283485 0.018841755

decoder.0.bias f4 [24]
00000000: d3de 29be df1f a53d 853e 6c3e 7e6c 603f
00000010: 8595 ed3c 4e0e e93e ea0a e2bc 8bbb 1ebf
00000020: 07b5 683e efd2 69be 71ea 45be 740c 153e
00000030: 7af9 1e3e 68e4 6abd e641 4ebe c9fc a73e
00000040: 8b8f 1ebf 0636 abbd 9abb 2dbd 3705 b33d
00000050: e5cf e0be 7b4b 71bd eecd e1be 6817 e2bc
-0.16588907 0.080627196 0.23070724 0.87665546 0.02900196 0.45518726 -0.027593095 -0.6200492
0.22725306 -0.22834371 -0.19327714 0.14555532 0.15524855 -0.05734673 -0.20142326 0.32810047
-0.6193778 -0.083599135 -0.04241524 0.08741229 -0.4390861 -0.058909874 -0.44102424 -0.027599052
